node {
  name: "inputs/X"
  op: "Placeholder"
  attr {
    key: "dtype"
    value {
      type: DT_FLOAT
    }
  }
  attr {
    key: "shape"
    value {
      shape {
        dim {
          size: -1
        }
        dim {
          size: 784
        }
      }
    }
  }
}
node {
  name: "inputs/Reshape/shape"
  op: "Const"
  attr {
    key: "dtype"
    value {
      type: DT_INT32
    }
  }
  attr {
    key: "value"
    value {
      tensor {
        dtype: DT_INT32
        tensor_shape {
          dim {
            size: 4
          }
        }
        tensor_content: "\377\377\377\377\034\000\000\000\034\000\000\000\001\000\000\000"
      }
    }
  }
}
node {
  name: "inputs/Reshape"
  op: "Reshape"
  input: "inputs/X"
  input: "inputs/Reshape/shape"
  attr {
    key: "T"
    value {
      type: DT_FLOAT
    }
  }
  attr {
    key: "Tshape"
    value {
      type: DT_INT32
    }
  }
}
node {
  name: "inputs/y"
  op: "Placeholder"
  attr {
    key: "dtype"
    value {
      type: DT_INT32
    }
  }
  attr {
    key: "shape"
    value {
      shape {
        dim {
          size: -1
        }
      }
    }
  }
}
node {
  name: "conv1/kernel/Initializer/random_uniform/shape"
  op: "Const"
  attr {
    key: "_class"
    value {
      list {
        s: "loc:@conv1/kernel"
      }
    }
  }
  attr {
    key: "dtype"
    value {
      type: DT_INT32
    }
  }
  attr {
    key: "value"
    value {
      tensor {
        dtype: DT_INT32
        tensor_shape {
          dim {
            size: 4
          }
        }
        tensor_content: "\003\000\000\000\003\000\000\000\001\000\000\000 \000\000\000"
      }
    }
  }
}
node {
  name: "conv1/kernel/Initializer/random_uniform/min"
  op: "Const"
  attr {
    key: "_class"
    value {
      list {
        s: "loc:@conv1/kernel"
      }
    }
  }
  attr {
    key: "dtype"
    value {
      type: DT_FLOAT
    }
  }
  attr {
    key: "value"
    value {
      tensor {
        dtype: DT_FLOAT
        tensor_shape {
        }
        float_val: -0.142133817077
      }
    }
  }
}
node {
  name: "conv1/kernel/Initializer/random_uniform/max"
  op: "Const"
  attr {
    key: "_class"
    value {
      list {
        s: "loc:@conv1/kernel"
      }
    }
  }
  attr {
    key: "dtype"
    value {
      type: DT_FLOAT
    }
  }
  attr {
    key: "value"
    value {
      tensor {
        dtype: DT_FLOAT
        tensor_shape {
        }
        float_val: 0.142133817077
      }
    }
  }
}
node {
  name: "conv1/kernel/Initializer/random_uniform/RandomUniform"
  op: "RandomUniform"
  input: "conv1/kernel/Initializer/random_uniform/shape"
  attr {
    key: "T"
    value {
      type: DT_INT32
    }
  }
  attr {
    key: "_class"
    value {
      list {
        s: "loc:@conv1/kernel"
      }
    }
  }
  attr {
    key: "dtype"
    value {
      type: DT_FLOAT
    }
  }
  attr {
    key: "seed"
    value {
      i: 42
    }
  }
  attr {
    key: "seed2"
    value {
      i: 7
    }
  }
}
node {
  name: "conv1/kernel/Initializer/random_uniform/sub"
  op: "Sub"
  input: "conv1/kernel/Initializer/random_uniform/max"
  input: "conv1/kernel/Initializer/random_uniform/min"
  attr {
    key: "T"
    value {
      type: DT_FLOAT
    }
  }
  attr {
    key: "_class"
    value {
      list {
        s: "loc:@conv1/kernel"
      }
    }
  }
}
node {
  name: "conv1/kernel/Initializer/random_uniform/mul"
  op: "Mul"
  input: "conv1/kernel/Initializer/random_uniform/RandomUniform"
  input: "conv1/kernel/Initializer/random_uniform/sub"
  attr {
    key: "T"
    value {
      type: DT_FLOAT
    }
  }
  attr {
    key: "_class"
    value {
      list {
        s: "loc:@conv1/kernel"
      }
    }
  }
}
node {
  name: "conv1/kernel/Initializer/random_uniform"
  op: "Add"
  input: "conv1/kernel/Initializer/random_uniform/mul"
  input: "conv1/kernel/Initializer/random_uniform/min"
  attr {
    key: "T"
    value {
      type: DT_FLOAT
    }
  }
  attr {
    key: "_class"
    value {
      list {
        s: "loc:@conv1/kernel"
      }
    }
  }
}
node {
  name: "conv1/kernel"
  op: "VariableV2"
  attr {
    key: "_class"
    value {
      list {
        s: "loc:@conv1/kernel"
      }
    }
  }
  attr {
    key: "container"
    value {
      s: ""
    }
  }
  attr {
    key: "dtype"
    value {
      type: DT_FLOAT
    }
  }
  attr {
    key: "shape"
    value {
      shape {
        dim {
          size: 3
        }
        dim {
          size: 3
        }
        dim {
          size: 1
        }
        dim {
          size: 32
        }
      }
    }
  }
  attr {
    key: "shared_name"
    value {
      s: ""
    }
  }
}
node {
  name: "conv1/kernel/Assign"
  op: "Assign"
  input: "conv1/kernel"
  input: "conv1/kernel/Initializer/random_uniform"
  attr {
    key: "T"
    value {
      type: DT_FLOAT
    }
  }
  attr {
    key: "_class"
    value {
      list {
        s: "loc:@conv1/kernel"
      }
    }
  }
  attr {
    key: "use_locking"
    value {
      b: true
    }
  }
  attr {
    key: "validate_shape"
    value {
      b: true
    }
  }
}
node {
  name: "conv1/kernel/read"
  op: "Identity"
  input: "conv1/kernel"
  attr {
    key: "T"
    value {
      type: DT_FLOAT
    }
  }
  attr {
    key: "_class"
    value {
      list {
        s: "loc:@conv1/kernel"
      }
    }
  }
}
node {
  name: "conv1/bias/Initializer/zeros"
  op: "Const"
  attr {
    key: "_class"
    value {
      list {
        s: "loc:@conv1/bias"
      }
    }
  }
  attr {
    key: "dtype"
    value {
      type: DT_FLOAT
    }
  }
  attr {
    key: "value"
    value {
      tensor {
        dtype: DT_FLOAT
        tensor_shape {
          dim {
            size: 32
          }
        }
        float_val: 0.0
      }
    }
  }
}
node {
  name: "conv1/bias"
  op: "VariableV2"
  attr {
    key: "_class"
    value {
      list {
        s: "loc:@conv1/bias"
      }
    }
  }
  attr {
    key: "container"
    value {
      s: ""
    }
  }
  attr {
    key: "dtype"
    value {
      type: DT_FLOAT
    }
  }
  attr {
    key: "shape"
    value {
      shape {
        dim {
          size: 32
        }
      }
    }
  }
  attr {
    key: "shared_name"
    value {
      s: ""
    }
  }
}
node {
  name: "conv1/bias/Assign"
  op: "Assign"
  input: "conv1/bias"
  input: "conv1/bias/Initializer/zeros"
  attr {
    key: "T"
    value {
      type: DT_FLOAT
    }
  }
  attr {
    key: "_class"
    value {
      list {
        s: "loc:@conv1/bias"
      }
    }
  }
  attr {
    key: "use_locking"
    value {
      b: true
    }
  }
  attr {
    key: "validate_shape"
    value {
      b: true
    }
  }
}
node {
  name: "conv1/bias/read"
  op: "Identity"
  input: "conv1/bias"
  attr {
    key: "T"
    value {
      type: DT_FLOAT
    }
  }
  attr {
    key: "_class"
    value {
      list {
        s: "loc:@conv1/bias"
      }
    }
  }
}
node {
  name: "conv1/dilation_rate"
  op: "Const"
  attr {
    key: "dtype"
    value {
      type: DT_INT32
    }
  }
  attr {
    key: "value"
    value {
      tensor {
        dtype: DT_INT32
        tensor_shape {
          dim {
            size: 2
          }
        }
        tensor_content: "\001\000\000\000\001\000\000\000"
      }
    }
  }
}
node {
  name: "conv1/Conv2D"
  op: "Conv2D"
  input: "inputs/Reshape"
  input: "conv1/kernel/read"
  attr {
    key: "T"
    value {
      type: DT_FLOAT
    }
  }
  attr {
    key: "data_format"
    value {
      s: "NHWC"
    }
  }
  attr {
    key: "dilations"
    value {
      list {
        i: 1
        i: 1
        i: 1
        i: 1
      }
    }
  }
  attr {
    key: "padding"
    value {
      s: "SAME"
    }
  }
  attr {
    key: "strides"
    value {
      list {
        i: 1
        i: 1
        i: 1
        i: 1
      }
    }
  }
  attr {
    key: "use_cudnn_on_gpu"
    value {
      b: true
    }
  }
}
node {
  name: "conv1/BiasAdd"
  op: "BiasAdd"
  input: "conv1/Conv2D"
  input: "conv1/bias/read"
  attr {
    key: "T"
    value {
      type: DT_FLOAT
    }
  }
  attr {
    key: "data_format"
    value {
      s: "NHWC"
    }
  }
}
node {
  name: "conv1/Relu"
  op: "Relu"
  input: "conv1/BiasAdd"
  attr {
    key: "T"
    value {
      type: DT_FLOAT
    }
  }
}
node {
  name: "conv2/kernel/Initializer/random_uniform/shape"
  op: "Const"
  attr {
    key: "_class"
    value {
      list {
        s: "loc:@conv2/kernel"
      }
    }
  }
  attr {
    key: "dtype"
    value {
      type: DT_INT32
    }
  }
  attr {
    key: "value"
    value {
      tensor {
        dtype: DT_INT32
        tensor_shape {
          dim {
            size: 4
          }
        }
        tensor_content: "\003\000\000\000\003\000\000\000 \000\000\000@\000\000\000"
      }
    }
  }
}
node {
  name: "conv2/kernel/Initializer/random_uniform/min"
  op: "Const"
  attr {
    key: "_class"
    value {
      list {
        s: "loc:@conv2/kernel"
      }
    }
  }
  attr {
    key: "dtype"
    value {
      type: DT_FLOAT
    }
  }
  attr {
    key: "value"
    value {
      tensor {
        dtype: DT_FLOAT
        tensor_shape {
        }
        float_val: -0.0833333358169
      }
    }
  }
}
node {
  name: "conv2/kernel/Initializer/random_uniform/max"
  op: "Const"
  attr {
    key: "_class"
    value {
      list {
        s: "loc:@conv2/kernel"
      }
    }
  }
  attr {
    key: "dtype"
    value {
      type: DT_FLOAT
    }
  }
  attr {
    key: "value"
    value {
      tensor {
        dtype: DT_FLOAT
        tensor_shape {
        }
        float_val: 0.0833333358169
      }
    }
  }
}
node {
  name: "conv2/kernel/Initializer/random_uniform/RandomUniform"
  op: "RandomUniform"
  input: "conv2/kernel/Initializer/random_uniform/shape"
  attr {
    key: "T"
    value {
      type: DT_INT32
    }
  }
  attr {
    key: "_class"
    value {
      list {
        s: "loc:@conv2/kernel"
      }
    }
  }
  attr {
    key: "dtype"
    value {
      type: DT_FLOAT
    }
  }
  attr {
    key: "seed"
    value {
      i: 42
    }
  }
  attr {
    key: "seed2"
    value {
      i: 25
    }
  }
}
node {
  name: "conv2/kernel/Initializer/random_uniform/sub"
  op: "Sub"
  input: "conv2/kernel/Initializer/random_uniform/max"
  input: "conv2/kernel/Initializer/random_uniform/min"
  attr {
    key: "T"
    value {
      type: DT_FLOAT
    }
  }
  attr {
    key: "_class"
    value {
      list {
        s: "loc:@conv2/kernel"
      }
    }
  }
}
node {
  name: "conv2/kernel/Initializer/random_uniform/mul"
  op: "Mul"
  input: "conv2/kernel/Initializer/random_uniform/RandomUniform"
  input: "conv2/kernel/Initializer/random_uniform/sub"
  attr {
    key: "T"
    value {
      type: DT_FLOAT
    }
  }
  attr {
    key: "_class"
    value {
      list {
        s: "loc:@conv2/kernel"
      }
    }
  }
}
node {
  name: "conv2/kernel/Initializer/random_uniform"
  op: "Add"
  input: "conv2/kernel/Initializer/random_uniform/mul"
  input: "conv2/kernel/Initializer/random_uniform/min"
  attr {
    key: "T"
    value {
      type: DT_FLOAT
    }
  }
  attr {
    key: "_class"
    value {
      list {
        s: "loc:@conv2/kernel"
      }
    }
  }
}
node {
  name: "conv2/kernel"
  op: "VariableV2"
  attr {
    key: "_class"
    value {
      list {
        s: "loc:@conv2/kernel"
      }
    }
  }
  attr {
    key: "container"
    value {
      s: ""
    }
  }
  attr {
    key: "dtype"
    value {
      type: DT_FLOAT
    }
  }
  attr {
    key: "shape"
    value {
      shape {
        dim {
          size: 3
        }
        dim {
          size: 3
        }
        dim {
          size: 32
        }
        dim {
          size: 64
        }
      }
    }
  }
  attr {
    key: "shared_name"
    value {
      s: ""
    }
  }
}
node {
  name: "conv2/kernel/Assign"
  op: "Assign"
  input: "conv2/kernel"
  input: "conv2/kernel/Initializer/random_uniform"
  attr {
    key: "T"
    value {
      type: DT_FLOAT
    }
  }
  attr {
    key: "_class"
    value {
      list {
        s: "loc:@conv2/kernel"
      }
    }
  }
  attr {
    key: "use_locking"
    value {
      b: true
    }
  }
  attr {
    key: "validate_shape"
    value {
      b: true
    }
  }
}
node {
  name: "conv2/kernel/read"
  op: "Identity"
  input: "conv2/kernel"
  attr {
    key: "T"
    value {
      type: DT_FLOAT
    }
  }
  attr {
    key: "_class"
    value {
      list {
        s: "loc:@conv2/kernel"
      }
    }
  }
}
node {
  name: "conv2/bias/Initializer/zeros"
  op: "Const"
  attr {
    key: "_class"
    value {
      list {
        s: "loc:@conv2/bias"
      }
    }
  }
  attr {
    key: "dtype"
    value {
      type: DT_FLOAT
    }
  }
  attr {
    key: "value"
    value {
      tensor {
        dtype: DT_FLOAT
        tensor_shape {
          dim {
            size: 64
          }
        }
        float_val: 0.0
      }
    }
  }
}
node {
  name: "conv2/bias"
  op: "VariableV2"
  attr {
    key: "_class"
    value {
      list {
        s: "loc:@conv2/bias"
      }
    }
  }
  attr {
    key: "container"
    value {
      s: ""
    }
  }
  attr {
    key: "dtype"
    value {
      type: DT_FLOAT
    }
  }
  attr {
    key: "shape"
    value {
      shape {
        dim {
          size: 64
        }
      }
    }
  }
  attr {
    key: "shared_name"
    value {
      s: ""
    }
  }
}
node {
  name: "conv2/bias/Assign"
  op: "Assign"
  input: "conv2/bias"
  input: "conv2/bias/Initializer/zeros"
  attr {
    key: "T"
    value {
      type: DT_FLOAT
    }
  }
  attr {
    key: "_class"
    value {
      list {
        s: "loc:@conv2/bias"
      }
    }
  }
  attr {
    key: "use_locking"
    value {
      b: true
    }
  }
  attr {
    key: "validate_shape"
    value {
      b: true
    }
  }
}
node {
  name: "conv2/bias/read"
  op: "Identity"
  input: "conv2/bias"
  attr {
    key: "T"
    value {
      type: DT_FLOAT
    }
  }
  attr {
    key: "_class"
    value {
      list {
        s: "loc:@conv2/bias"
      }
    }
  }
}
node {
  name: "conv2/dilation_rate"
  op: "Const"
  attr {
    key: "dtype"
    value {
      type: DT_INT32
    }
  }
  attr {
    key: "value"
    value {
      tensor {
        dtype: DT_INT32
        tensor_shape {
          dim {
            size: 2
          }
        }
        tensor_content: "\001\000\000\000\001\000\000\000"
      }
    }
  }
}
node {
  name: "conv2/Conv2D"
  op: "Conv2D"
  input: "conv1/Relu"
  input: "conv2/kernel/read"
  attr {
    key: "T"
    value {
      type: DT_FLOAT
    }
  }
  attr {
    key: "data_format"
    value {
      s: "NHWC"
    }
  }
  attr {
    key: "dilations"
    value {
      list {
        i: 1
        i: 1
        i: 1
        i: 1
      }
    }
  }
  attr {
    key: "padding"
    value {
      s: "SAME"
    }
  }
  attr {
    key: "strides"
    value {
      list {
        i: 1
        i: 2
        i: 2
        i: 1
      }
    }
  }
  attr {
    key: "use_cudnn_on_gpu"
    value {
      b: true
    }
  }
}
node {
  name: "conv2/BiasAdd"
  op: "BiasAdd"
  input: "conv2/Conv2D"
  input: "conv2/bias/read"
  attr {
    key: "T"
    value {
      type: DT_FLOAT
    }
  }
  attr {
    key: "data_format"
    value {
      s: "NHWC"
    }
  }
}
node {
  name: "conv2/Relu"
  op: "Relu"
  input: "conv2/BiasAdd"
  attr {
    key: "T"
    value {
      type: DT_FLOAT
    }
  }
}
node {
  name: "pool3/MaxPool"
  op: "MaxPool"
  input: "conv2/Relu"
  attr {
    key: "T"
    value {
      type: DT_FLOAT
    }
  }
  attr {
    key: "data_format"
    value {
      s: "NHWC"
    }
  }
  attr {
    key: "ksize"
    value {
      list {
        i: 1
        i: 2
        i: 2
        i: 1
      }
    }
  }
  attr {
    key: "padding"
    value {
      s: "VALID"
    }
  }
  attr {
    key: "strides"
    value {
      list {
        i: 1
        i: 2
        i: 2
        i: 1
      }
    }
  }
}
node {
  name: "pool3/Reshape/shape"
  op: "Const"
  attr {
    key: "dtype"
    value {
      type: DT_INT32
    }
  }
  attr {
    key: "value"
    value {
      tensor {
        dtype: DT_INT32
        tensor_shape {
          dim {
            size: 2
          }
        }
        tensor_content: "\377\377\377\377@\014\000\000"
      }
    }
  }
}
node {
  name: "pool3/Reshape"
  op: "Reshape"
  input: "pool3/MaxPool"
  input: "pool3/Reshape/shape"
  attr {
    key: "T"
    value {
      type: DT_FLOAT
    }
  }
  attr {
    key: "Tshape"
    value {
      type: DT_INT32
    }
  }
}
node {
  name: "fc1/kernel/Initializer/random_uniform/shape"
  op: "Const"
  attr {
    key: "_class"
    value {
      list {
        s: "loc:@fc1/kernel"
      }
    }
  }
  attr {
    key: "dtype"
    value {
      type: DT_INT32
    }
  }
  attr {
    key: "value"
    value {
      tensor {
        dtype: DT_INT32
        tensor_shape {
          dim {
            size: 2
          }
        }
        tensor_content: "@\014\000\000@\000\000\000"
      }
    }
  }
}
node {
  name: "fc1/kernel/Initializer/random_uniform/min"
  op: "Const"
  attr {
    key: "_class"
    value {
      list {
        s: "loc:@fc1/kernel"
      }
    }
  }
  attr {
    key: "dtype"
    value {
      type: DT_FLOAT
    }
  }
  attr {
    key: "value"
    value {
      tensor {
        dtype: DT_FLOAT
        tensor_shape {
        }
        float_val: -0.043301269412
      }
    }
  }
}
node {
  name: "fc1/kernel/Initializer/random_uniform/max"
  op: "Const"
  attr {
    key: "_class"
    value {
      list {
        s: "loc:@fc1/kernel"
      }
    }
  }
  attr {
    key: "dtype"
    value {
      type: DT_FLOAT
    }
  }
  attr {
    key: "value"
    value {
      tensor {
        dtype: DT_FLOAT
        tensor_shape {
        }
        float_val: 0.043301269412
      }
    }
  }
}
node {
  name: "fc1/kernel/Initializer/random_uniform/RandomUniform"
  op: "RandomUniform"
  input: "fc1/kernel/Initializer/random_uniform/shape"
  attr {
    key: "T"
    value {
      type: DT_INT32
    }
  }
  attr {
    key: "_class"
    value {
      list {
        s: "loc:@fc1/kernel"
      }
    }
  }
  attr {
    key: "dtype"
    value {
      type: DT_FLOAT
    }
  }
  attr {
    key: "seed"
    value {
      i: 42
    }
  }
  attr {
    key: "seed2"
    value {
      i: 46
    }
  }
}
node {
  name: "fc1/kernel/Initializer/random_uniform/sub"
  op: "Sub"
  input: "fc1/kernel/Initializer/random_uniform/max"
  input: "fc1/kernel/Initializer/random_uniform/min"
  attr {
    key: "T"
    value {
      type: DT_FLOAT
    }
  }
  attr {
    key: "_class"
    value {
      list {
        s: "loc:@fc1/kernel"
      }
    }
  }
}
node {
  name: "fc1/kernel/Initializer/random_uniform/mul"
  op: "Mul"
  input: "fc1/kernel/Initializer/random_uniform/RandomUniform"
  input: "fc1/kernel/Initializer/random_uniform/sub"
  attr {
    key: "T"
    value {
      type: DT_FLOAT
    }
  }
  attr {
    key: "_class"
    value {
      list {
        s: "loc:@fc1/kernel"
      }
    }
  }
}
node {
  name: "fc1/kernel/Initializer/random_uniform"
  op: "Add"
  input: "fc1/kernel/Initializer/random_uniform/mul"
  input: "fc1/kernel/Initializer/random_uniform/min"
  attr {
    key: "T"
    value {
      type: DT_FLOAT
    }
  }
  attr {
    key: "_class"
    value {
      list {
        s: "loc:@fc1/kernel"
      }
    }
  }
}
node {
  name: "fc1/kernel"
  op: "VariableV2"
  attr {
    key: "_class"
    value {
      list {
        s: "loc:@fc1/kernel"
      }
    }
  }
  attr {
    key: "container"
    value {
      s: ""
    }
  }
  attr {
    key: "dtype"
    value {
      type: DT_FLOAT
    }
  }
  attr {
    key: "shape"
    value {
      shape {
        dim {
          size: 3136
        }
        dim {
          size: 64
        }
      }
    }
  }
  attr {
    key: "shared_name"
    value {
      s: ""
    }
  }
}
node {
  name: "fc1/kernel/Assign"
  op: "Assign"
  input: "fc1/kernel"
  input: "fc1/kernel/Initializer/random_uniform"
  attr {
    key: "T"
    value {
      type: DT_FLOAT
    }
  }
  attr {
    key: "_class"
    value {
      list {
        s: "loc:@fc1/kernel"
      }
    }
  }
  attr {
    key: "use_locking"
    value {
      b: true
    }
  }
  attr {
    key: "validate_shape"
    value {
      b: true
    }
  }
}
node {
  name: "fc1/kernel/read"
  op: "Identity"
  input: "fc1/kernel"
  attr {
    key: "T"
    value {
      type: DT_FLOAT
    }
  }
  attr {
    key: "_class"
    value {
      list {
        s: "loc:@fc1/kernel"
      }
    }
  }
}
node {
  name: "fc1/bias/Initializer/zeros"
  op: "Const"
  attr {
    key: "_class"
    value {
      list {
        s: "loc:@fc1/bias"
      }
    }
  }
  attr {
    key: "dtype"
    value {
      type: DT_FLOAT
    }
  }
  attr {
    key: "value"
    value {
      tensor {
        dtype: DT_FLOAT
        tensor_shape {
          dim {
            size: 64
          }
        }
        float_val: 0.0
      }
    }
  }
}
node {
  name: "fc1/bias"
  op: "VariableV2"
  attr {
    key: "_class"
    value {
      list {
        s: "loc:@fc1/bias"
      }
    }
  }
  attr {
    key: "container"
    value {
      s: ""
    }
  }
  attr {
    key: "dtype"
    value {
      type: DT_FLOAT
    }
  }
  attr {
    key: "shape"
    value {
      shape {
        dim {
          size: 64
        }
      }
    }
  }
  attr {
    key: "shared_name"
    value {
      s: ""
    }
  }
}
node {
  name: "fc1/bias/Assign"
  op: "Assign"
  input: "fc1/bias"
  input: "fc1/bias/Initializer/zeros"
  attr {
    key: "T"
    value {
      type: DT_FLOAT
    }
  }
  attr {
    key: "_class"
    value {
      list {
        s: "loc:@fc1/bias"
      }
    }
  }
  attr {
    key: "use_locking"
    value {
      b: true
    }
  }
  attr {
    key: "validate_shape"
    value {
      b: true
    }
  }
}
node {
  name: "fc1/bias/read"
  op: "Identity"
  input: "fc1/bias"
  attr {
    key: "T"
    value {
      type: DT_FLOAT
    }
  }
  attr {
    key: "_class"
    value {
      list {
        s: "loc:@fc1/bias"
      }
    }
  }
}
node {
  name: "fc1/fc1/MatMul"
  op: "MatMul"
  input: "pool3/Reshape"
  input: "fc1/kernel/read"
  attr {
    key: "T"
    value {
      type: DT_FLOAT
    }
  }
  attr {
    key: "transpose_a"
    value {
      b: false
    }
  }
  attr {
    key: "transpose_b"
    value {
      b: false
    }
  }
}
node {
  name: "fc1/fc1/BiasAdd"
  op: "BiasAdd"
  input: "fc1/fc1/MatMul"
  input: "fc1/bias/read"
  attr {
    key: "T"
    value {
      type: DT_FLOAT
    }
  }
  attr {
    key: "data_format"
    value {
      s: "NHWC"
    }
  }
}
node {
  name: "fc1/fc1/Relu"
  op: "Relu"
  input: "fc1/fc1/BiasAdd"
  attr {
    key: "T"
    value {
      type: DT_FLOAT
    }
  }
}
node {
  name: "output/kernel/Initializer/random_uniform/shape"
  op: "Const"
  attr {
    key: "_class"
    value {
      list {
        s: "loc:@output/kernel"
      }
    }
  }
  attr {
    key: "dtype"
    value {
      type: DT_INT32
    }
  }
  attr {
    key: "value"
    value {
      tensor {
        dtype: DT_INT32
        tensor_shape {
          dim {
            size: 2
          }
        }
        tensor_content: "@\000\000\000\n\000\000\000"
      }
    }
  }
}
node {
  name: "output/kernel/Initializer/random_uniform/min"
  op: "Const"
  attr {
    key: "_class"
    value {
      list {
        s: "loc:@output/kernel"
      }
    }
  }
  attr {
    key: "dtype"
    value {
      type: DT_FLOAT
    }
  }
  attr {
    key: "value"
    value {
      tensor {
        dtype: DT_FLOAT
        tensor_shape {
        }
        float_val: -0.284747391939
      }
    }
  }
}
node {
  name: "output/kernel/Initializer/random_uniform/max"
  op: "Const"
  attr {
    key: "_class"
    value {
      list {
        s: "loc:@output/kernel"
      }
    }
  }
  attr {
    key: "dtype"
    value {
      type: DT_FLOAT
    }
  }
  attr {
    key: "value"
    value {
      tensor {
        dtype: DT_FLOAT
        tensor_shape {
        }
        float_val: 0.284747391939
      }
    }
  }
}
node {
  name: "output/kernel/Initializer/random_uniform/RandomUniform"
  op: "RandomUniform"
  input: "output/kernel/Initializer/random_uniform/shape"
  attr {
    key: "T"
    value {
      type: DT_INT32
    }
  }
  attr {
    key: "_class"
    value {
      list {
        s: "loc:@output/kernel"
      }
    }
  }
  attr {
    key: "dtype"
    value {
      type: DT_FLOAT
    }
  }
  attr {
    key: "seed"
    value {
      i: 42
    }
  }
  attr {
    key: "seed2"
    value {
      i: 63
    }
  }
}
node {
  name: "output/kernel/Initializer/random_uniform/sub"
  op: "Sub"
  input: "output/kernel/Initializer/random_uniform/max"
  input: "output/kernel/Initializer/random_uniform/min"
  attr {
    key: "T"
    value {
      type: DT_FLOAT
    }
  }
  attr {
    key: "_class"
    value {
      list {
        s: "loc:@output/kernel"
      }
    }
  }
}
node {
  name: "output/kernel/Initializer/random_uniform/mul"
  op: "Mul"
  input: "output/kernel/Initializer/random_uniform/RandomUniform"
  input: "output/kernel/Initializer/random_uniform/sub"
  attr {
    key: "T"
    value {
      type: DT_FLOAT
    }
  }
  attr {
    key: "_class"
    value {
      list {
        s: "loc:@output/kernel"
      }
    }
  }
}
node {
  name: "output/kernel/Initializer/random_uniform"
  op: "Add"
  input: "output/kernel/Initializer/random_uniform/mul"
  input: "output/kernel/Initializer/random_uniform/min"
  attr {
    key: "T"
    value {
      type: DT_FLOAT
    }
  }
  attr {
    key: "_class"
    value {
      list {
        s: "loc:@output/kernel"
      }
    }
  }
}
node {
  name: "output/kernel"
  op: "VariableV2"
  attr {
    key: "_class"
    value {
      list {
        s: "loc:@output/kernel"
      }
    }
  }
  attr {
    key: "container"
    value {
      s: ""
    }
  }
  attr {
    key: "dtype"
    value {
      type: DT_FLOAT
    }
  }
  attr {
    key: "shape"
    value {
      shape {
        dim {
          size: 64
        }
        dim {
          size: 10
        }
      }
    }
  }
  attr {
    key: "shared_name"
    value {
      s: ""
    }
  }
}
node {
  name: "output/kernel/Assign"
  op: "Assign"
  input: "output/kernel"
  input: "output/kernel/Initializer/random_uniform"
  attr {
    key: "T"
    value {
      type: DT_FLOAT
    }
  }
  attr {
    key: "_class"
    value {
      list {
        s: "loc:@output/kernel"
      }
    }
  }
  attr {
    key: "use_locking"
    value {
      b: true
    }
  }
  attr {
    key: "validate_shape"
    value {
      b: true
    }
  }
}
node {
  name: "output/kernel/read"
  op: "Identity"
  input: "output/kernel"
  attr {
    key: "T"
    value {
      type: DT_FLOAT
    }
  }
  attr {
    key: "_class"
    value {
      list {
        s: "loc:@output/kernel"
      }
    }
  }
}
node {
  name: "output/bias/Initializer/zeros"
  op: "Const"
  attr {
    key: "_class"
    value {
      list {
        s: "loc:@output/bias"
      }
    }
  }
  attr {
    key: "dtype"
    value {
      type: DT_FLOAT
    }
  }
  attr {
    key: "value"
    value {
      tensor {
        dtype: DT_FLOAT
        tensor_shape {
          dim {
            size: 10
          }
        }
        float_val: 0.0
      }
    }
  }
}
node {
  name: "output/bias"
  op: "VariableV2"
  attr {
    key: "_class"
    value {
      list {
        s: "loc:@output/bias"
      }
    }
  }
  attr {
    key: "container"
    value {
      s: ""
    }
  }
  attr {
    key: "dtype"
    value {
      type: DT_FLOAT
    }
  }
  attr {
    key: "shape"
    value {
      shape {
        dim {
          size: 10
        }
      }
    }
  }
  attr {
    key: "shared_name"
    value {
      s: ""
    }
  }
}
node {
  name: "output/bias/Assign"
  op: "Assign"
  input: "output/bias"
  input: "output/bias/Initializer/zeros"
  attr {
    key: "T"
    value {
      type: DT_FLOAT
    }
  }
  attr {
    key: "_class"
    value {
      list {
        s: "loc:@output/bias"
      }
    }
  }
  attr {
    key: "use_locking"
    value {
      b: true
    }
  }
  attr {
    key: "validate_shape"
    value {
      b: true
    }
  }
}
node {
  name: "output/bias/read"
  op: "Identity"
  input: "output/bias"
  attr {
    key: "T"
    value {
      type: DT_FLOAT
    }
  }
  attr {
    key: "_class"
    value {
      list {
        s: "loc:@output/bias"
      }
    }
  }
}
node {
  name: "output/output/MatMul"
  op: "MatMul"
  input: "fc1/fc1/Relu"
  input: "output/kernel/read"
  attr {
    key: "T"
    value {
      type: DT_FLOAT
    }
  }
  attr {
    key: "transpose_a"
    value {
      b: false
    }
  }
  attr {
    key: "transpose_b"
    value {
      b: false
    }
  }
}
node {
  name: "output/output/BiasAdd"
  op: "BiasAdd"
  input: "output/output/MatMul"
  input: "output/bias/read"
  attr {
    key: "T"
    value {
      type: DT_FLOAT
    }
  }
  attr {
    key: "data_format"
    value {
      s: "NHWC"
    }
  }
}
node {
  name: "output/Y_proba"
  op: "Softmax"
  input: "output/output/BiasAdd"
  attr {
    key: "T"
    value {
      type: DT_FLOAT
    }
  }
}
node {
  name: "train/SparseSoftmaxCrossEntropyWithLogits/Shape"
  op: "Shape"
  input: "inputs/y"
  attr {
    key: "T"
    value {
      type: DT_INT32
    }
  }
  attr {
    key: "out_type"
    value {
      type: DT_INT32
    }
  }
}
node {
  name: "train/SparseSoftmaxCrossEntropyWithLogits/SparseSoftmaxCrossEntropyWithLogits"
  op: "SparseSoftmaxCrossEntropyWithLogits"
  input: "output/output/BiasAdd"
  input: "inputs/y"
  attr {
    key: "T"
    value {
      type: DT_FLOAT
    }
  }
  attr {
    key: "Tlabels"
    value {
      type: DT_INT32
    }
  }
}
node {
  name: "train/Const"
  op: "Const"
  attr {
    key: "dtype"
    value {
      type: DT_INT32
    }
  }
  attr {
    key: "value"
    value {
      tensor {
        dtype: DT_INT32
        tensor_shape {
          dim {
            size: 1
          }
        }
        int_val: 0
      }
    }
  }
}
node {
  name: "train/Mean"
  op: "Mean"
  input: "train/SparseSoftmaxCrossEntropyWithLogits/SparseSoftmaxCrossEntropyWithLogits"
  input: "train/Const"
  attr {
    key: "T"
    value {
      type: DT_FLOAT
    }
  }
  attr {
    key: "Tidx"
    value {
      type: DT_INT32
    }
  }
  attr {
    key: "keep_dims"
    value {
      b: false
    }
  }
}
node {
  name: "train/gradients/Shape"
  op: "Const"
  attr {
    key: "dtype"
    value {
      type: DT_INT32
    }
  }
  attr {
    key: "value"
    value {
      tensor {
        dtype: DT_INT32
        tensor_shape {
          dim {
          }
        }
      }
    }
  }
}
node {
  name: "train/gradients/grad_ys_0"
  op: "Const"
  attr {
    key: "dtype"
    value {
      type: DT_FLOAT
    }
  }
  attr {
    key: "value"
    value {
      tensor {
        dtype: DT_FLOAT
        tensor_shape {
        }
        float_val: 1.0
      }
    }
  }
}
node {
  name: "train/gradients/Fill"
  op: "Fill"
  input: "train/gradients/Shape"
  input: "train/gradients/grad_ys_0"
  attr {
    key: "T"
    value {
      type: DT_FLOAT
    }
  }
  attr {
    key: "index_type"
    value {
      type: DT_INT32
    }
  }
}
node {
  name: "train/gradients/train/Mean_grad/Reshape/shape"
  op: "Const"
  attr {
    key: "dtype"
    value {
      type: DT_INT32
    }
  }
  attr {
    key: "value"
    value {
      tensor {
        dtype: DT_INT32
        tensor_shape {
          dim {
            size: 1
          }
        }
        int_val: 1
      }
    }
  }
}
node {
  name: "train/gradients/train/Mean_grad/Reshape"
  op: "Reshape"
  input: "train/gradients/Fill"
  input: "train/gradients/train/Mean_grad/Reshape/shape"
  attr {
    key: "T"
    value {
      type: DT_FLOAT
    }
  }
  attr {
    key: "Tshape"
    value {
      type: DT_INT32
    }
  }
}
node {
  name: "train/gradients/train/Mean_grad/Shape"
  op: "Shape"
  input: "train/SparseSoftmaxCrossEntropyWithLogits/SparseSoftmaxCrossEntropyWithLogits"
  attr {
    key: "T"
    value {
      type: DT_FLOAT
    }
  }
  attr {
    key: "out_type"
    value {
      type: DT_INT32
    }
  }
}
node {
  name: "train/gradients/train/Mean_grad/Tile"
  op: "Tile"
  input: "train/gradients/train/Mean_grad/Reshape"
  input: "train/gradients/train/Mean_grad/Shape"
  attr {
    key: "T"
    value {
      type: DT_FLOAT
    }
  }
  attr {
    key: "Tmultiples"
    value {
      type: DT_INT32
    }
  }
}
node {
  name: "train/gradients/train/Mean_grad/Shape_1"
  op: "Shape"
  input: "train/SparseSoftmaxCrossEntropyWithLogits/SparseSoftmaxCrossEntropyWithLogits"
  attr {
    key: "T"
    value {
      type: DT_FLOAT
    }
  }
  attr {
    key: "out_type"
    value {
      type: DT_INT32
    }
  }
}
node {
  name: "train/gradients/train/Mean_grad/Shape_2"
  op: "Const"
  attr {
    key: "dtype"
    value {
      type: DT_INT32
    }
  }
  attr {
    key: "value"
    value {
      tensor {
        dtype: DT_INT32
        tensor_shape {
          dim {
          }
        }
      }
    }
  }
}
node {
  name: "train/gradients/train/Mean_grad/Const"
  op: "Const"
  attr {
    key: "dtype"
    value {
      type: DT_INT32
    }
  }
  attr {
    key: "value"
    value {
      tensor {
        dtype: DT_INT32
        tensor_shape {
          dim {
            size: 1
          }
        }
        int_val: 0
      }
    }
  }
}
node {
  name: "train/gradients/train/Mean_grad/Prod"
  op: "Prod"
  input: "train/gradients/train/Mean_grad/Shape_1"
  input: "train/gradients/train/Mean_grad/Const"
  attr {
    key: "T"
    value {
      type: DT_INT32
    }
  }
  attr {
    key: "Tidx"
    value {
      type: DT_INT32
    }
  }
  attr {
    key: "keep_dims"
    value {
      b: false
    }
  }
}
node {
  name: "train/gradients/train/Mean_grad/Const_1"
  op: "Const"
  attr {
    key: "dtype"
    value {
      type: DT_INT32
    }
  }
  attr {
    key: "value"
    value {
      tensor {
        dtype: DT_INT32
        tensor_shape {
          dim {
            size: 1
          }
        }
        int_val: 0
      }
    }
  }
}
node {
  name: "train/gradients/train/Mean_grad/Prod_1"
  op: "Prod"
  input: "train/gradients/train/Mean_grad/Shape_2"
  input: "train/gradients/train/Mean_grad/Const_1"
  attr {
    key: "T"
    value {
      type: DT_INT32
    }
  }
  attr {
    key: "Tidx"
    value {
      type: DT_INT32
    }
  }
  attr {
    key: "keep_dims"
    value {
      b: false
    }
  }
}
node {
  name: "train/gradients/train/Mean_grad/Maximum/y"
  op: "Const"
  attr {
    key: "dtype"
    value {
      type: DT_INT32
    }
  }
  attr {
    key: "value"
    value {
      tensor {
        dtype: DT_INT32
        tensor_shape {
        }
        int_val: 1
      }
    }
  }
}
node {
  name: "train/gradients/train/Mean_grad/Maximum"
  op: "Maximum"
  input: "train/gradients/train/Mean_grad/Prod_1"
  input: "train/gradients/train/Mean_grad/Maximum/y"
  attr {
    key: "T"
    value {
      type: DT_INT32
    }
  }
}
node {
  name: "train/gradients/train/Mean_grad/floordiv"
  op: "FloorDiv"
  input: "train/gradients/train/Mean_grad/Prod"
  input: "train/gradients/train/Mean_grad/Maximum"
  attr {
    key: "T"
    value {
      type: DT_INT32
    }
  }
}
node {
  name: "train/gradients/train/Mean_grad/Cast"
  op: "Cast"
  input: "train/gradients/train/Mean_grad/floordiv"
  attr {
    key: "DstT"
    value {
      type: DT_FLOAT
    }
  }
  attr {
    key: "SrcT"
    value {
      type: DT_INT32
    }
  }
  attr {
    key: "Truncate"
    value {
      b: false
    }
  }
}
node {
  name: "train/gradients/train/Mean_grad/truediv"
  op: "RealDiv"
  input: "train/gradients/train/Mean_grad/Tile"
  input: "train/gradients/train/Mean_grad/Cast"
  attr {
    key: "T"
    value {
      type: DT_FLOAT
    }
  }
}
node {
  name: "train/gradients/zeros_like"
  op: "ZerosLike"
  input: "train/SparseSoftmaxCrossEntropyWithLogits/SparseSoftmaxCrossEntropyWithLogits:1"
  attr {
    key: "T"
    value {
      type: DT_FLOAT
    }
  }
}
node {
  name: "train/gradients/train/SparseSoftmaxCrossEntropyWithLogits/SparseSoftmaxCrossEntropyWithLogits_grad/PreventGradient"
  op: "PreventGradient"
  input: "train/SparseSoftmaxCrossEntropyWithLogits/SparseSoftmaxCrossEntropyWithLogits:1"
  attr {
    key: "T"
    value {
      type: DT_FLOAT
    }
  }
  attr {
    key: "message"
    value {
      s: "Currently there is no way to take the second derivative of sparse_softmax_cross_entropy_with_logits due to the fused implementation\'s interaction with tf.gradients()"
    }
  }
}
node {
  name: "train/gradients/train/SparseSoftmaxCrossEntropyWithLogits/SparseSoftmaxCrossEntropyWithLogits_grad/ExpandDims/dim"
  op: "Const"
  attr {
    key: "dtype"
    value {
      type: DT_INT32
    }
  }
  attr {
    key: "value"
    value {
      tensor {
        dtype: DT_INT32
        tensor_shape {
        }
        int_val: -1
      }
    }
  }
}
node {
  name: "train/gradients/train/SparseSoftmaxCrossEntropyWithLogits/SparseSoftmaxCrossEntropyWithLogits_grad/ExpandDims"
  op: "ExpandDims"
  input: "train/gradients/train/Mean_grad/truediv"
  input: "train/gradients/train/SparseSoftmaxCrossEntropyWithLogits/SparseSoftmaxCrossEntropyWithLogits_grad/ExpandDims/dim"
  attr {
    key: "T"
    value {
      type: DT_FLOAT
    }
  }
  attr {
    key: "Tdim"
    value {
      type: DT_INT32
    }
  }
}
node {
  name: "train/gradients/train/SparseSoftmaxCrossEntropyWithLogits/SparseSoftmaxCrossEntropyWithLogits_grad/mul"
  op: "Mul"
  input: "train/gradients/train/SparseSoftmaxCrossEntropyWithLogits/SparseSoftmaxCrossEntropyWithLogits_grad/ExpandDims"
  input: "train/gradients/train/SparseSoftmaxCrossEntropyWithLogits/SparseSoftmaxCrossEntropyWithLogits_grad/PreventGradient"
  attr {
    key: "T"
    value {
      type: DT_FLOAT
    }
  }
}
node {
  name: "train/gradients/output/output/BiasAdd_grad/BiasAddGrad"
  op: "BiasAddGrad"
  input: "train/gradients/train/SparseSoftmaxCrossEntropyWithLogits/SparseSoftmaxCrossEntropyWithLogits_grad/mul"
  attr {
    key: "T"
    value {
      type: DT_FLOAT
    }
  }
  attr {
    key: "data_format"
    value {
      s: "NHWC"
    }
  }
}
node {
  name: "train/gradients/output/output/BiasAdd_grad/tuple/group_deps"
  op: "NoOp"
  input: "^train/gradients/output/output/BiasAdd_grad/BiasAddGrad"
  input: "^train/gradients/train/SparseSoftmaxCrossEntropyWithLogits/SparseSoftmaxCrossEntropyWithLogits_grad/mul"
}
node {
  name: "train/gradients/output/output/BiasAdd_grad/tuple/control_dependency"
  op: "Identity"
  input: "train/gradients/train/SparseSoftmaxCrossEntropyWithLogits/SparseSoftmaxCrossEntropyWithLogits_grad/mul"
  input: "^train/gradients/output/output/BiasAdd_grad/tuple/group_deps"
  attr {
    key: "T"
    value {
      type: DT_FLOAT
    }
  }
  attr {
    key: "_class"
    value {
      list {
        s: "loc:@train/gradients/train/SparseSoftmaxCrossEntropyWithLogits/SparseSoftmaxCrossEntropyWithLogits_grad/mul"
      }
    }
  }
}
node {
  name: "train/gradients/output/output/BiasAdd_grad/tuple/control_dependency_1"
  op: "Identity"
  input: "train/gradients/output/output/BiasAdd_grad/BiasAddGrad"
  input: "^train/gradients/output/output/BiasAdd_grad/tuple/group_deps"
  attr {
    key: "T"
    value {
      type: DT_FLOAT
    }
  }
  attr {
    key: "_class"
    value {
      list {
        s: "loc:@train/gradients/output/output/BiasAdd_grad/BiasAddGrad"
      }
    }
  }
}
node {
  name: "train/gradients/output/output/MatMul_grad/MatMul"
  op: "MatMul"
  input: "train/gradients/output/output/BiasAdd_grad/tuple/control_dependency"
  input: "output/kernel/read"
  attr {
    key: "T"
    value {
      type: DT_FLOAT
    }
  }
  attr {
    key: "transpose_a"
    value {
      b: false
    }
  }
  attr {
    key: "transpose_b"
    value {
      b: true
    }
  }
}
node {
  name: "train/gradients/output/output/MatMul_grad/MatMul_1"
  op: "MatMul"
  input: "fc1/fc1/Relu"
  input: "train/gradients/output/output/BiasAdd_grad/tuple/control_dependency"
  attr {
    key: "T"
    value {
      type: DT_FLOAT
    }
  }
  attr {
    key: "transpose_a"
    value {
      b: true
    }
  }
  attr {
    key: "transpose_b"
    value {
      b: false
    }
  }
}
node {
  name: "train/gradients/output/output/MatMul_grad/tuple/group_deps"
  op: "NoOp"
  input: "^train/gradients/output/output/MatMul_grad/MatMul"
  input: "^train/gradients/output/output/MatMul_grad/MatMul_1"
}
node {
  name: "train/gradients/output/output/MatMul_grad/tuple/control_dependency"
  op: "Identity"
  input: "train/gradients/output/output/MatMul_grad/MatMul"
  input: "^train/gradients/output/output/MatMul_grad/tuple/group_deps"
  attr {
    key: "T"
    value {
      type: DT_FLOAT
    }
  }
  attr {
    key: "_class"
    value {
      list {
        s: "loc:@train/gradients/output/output/MatMul_grad/MatMul"
      }
    }
  }
}
node {
  name: "train/gradients/output/output/MatMul_grad/tuple/control_dependency_1"
  op: "Identity"
  input: "train/gradients/output/output/MatMul_grad/MatMul_1"
  input: "^train/gradients/output/output/MatMul_grad/tuple/group_deps"
  attr {
    key: "T"
    value {
      type: DT_FLOAT
    }
  }
  attr {
    key: "_class"
    value {
      list {
        s: "loc:@train/gradients/output/output/MatMul_grad/MatMul_1"
      }
    }
  }
}
node {
  name: "train/gradients/fc1/fc1/Relu_grad/ReluGrad"
  op: "ReluGrad"
  input: "train/gradients/output/output/MatMul_grad/tuple/control_dependency"
  input: "fc1/fc1/Relu"
  attr {
    key: "T"
    value {
      type: DT_FLOAT
    }
  }
}
node {
  name: "train/gradients/fc1/fc1/BiasAdd_grad/BiasAddGrad"
  op: "BiasAddGrad"
  input: "train/gradients/fc1/fc1/Relu_grad/ReluGrad"
  attr {
    key: "T"
    value {
      type: DT_FLOAT
    }
  }
  attr {
    key: "data_format"
    value {
      s: "NHWC"
    }
  }
}
node {
  name: "train/gradients/fc1/fc1/BiasAdd_grad/tuple/group_deps"
  op: "NoOp"
  input: "^train/gradients/fc1/fc1/BiasAdd_grad/BiasAddGrad"
  input: "^train/gradients/fc1/fc1/Relu_grad/ReluGrad"
}
node {
  name: "train/gradients/fc1/fc1/BiasAdd_grad/tuple/control_dependency"
  op: "Identity"
  input: "train/gradients/fc1/fc1/Relu_grad/ReluGrad"
  input: "^train/gradients/fc1/fc1/BiasAdd_grad/tuple/group_deps"
  attr {
    key: "T"
    value {
      type: DT_FLOAT
    }
  }
  attr {
    key: "_class"
    value {
      list {
        s: "loc:@train/gradients/fc1/fc1/Relu_grad/ReluGrad"
      }
    }
  }
}
node {
  name: "train/gradients/fc1/fc1/BiasAdd_grad/tuple/control_dependency_1"
  op: "Identity"
  input: "train/gradients/fc1/fc1/BiasAdd_grad/BiasAddGrad"
  input: "^train/gradients/fc1/fc1/BiasAdd_grad/tuple/group_deps"
  attr {
    key: "T"
    value {
      type: DT_FLOAT
    }
  }
  attr {
    key: "_class"
    value {
      list {
        s: "loc:@train/gradients/fc1/fc1/BiasAdd_grad/BiasAddGrad"
      }
    }
  }
}
node {
  name: "train/gradients/fc1/fc1/MatMul_grad/MatMul"
  op: "MatMul"
  input: "train/gradients/fc1/fc1/BiasAdd_grad/tuple/control_dependency"
  input: "fc1/kernel/read"
  attr {
    key: "T"
    value {
      type: DT_FLOAT
    }
  }
  attr {
    key: "transpose_a"
    value {
      b: false
    }
  }
  attr {
    key: "transpose_b"
    value {
      b: true
    }
  }
}
node {
  name: "train/gradients/fc1/fc1/MatMul_grad/MatMul_1"
  op: "MatMul"
  input: "pool3/Reshape"
  input: "train/gradients/fc1/fc1/BiasAdd_grad/tuple/control_dependency"
  attr {
    key: "T"
    value {
      type: DT_FLOAT
    }
  }
  attr {
    key: "transpose_a"
    value {
      b: true
    }
  }
  attr {
    key: "transpose_b"
    value {
      b: false
    }
  }
}
node {
  name: "train/gradients/fc1/fc1/MatMul_grad/tuple/group_deps"
  op: "NoOp"
  input: "^train/gradients/fc1/fc1/MatMul_grad/MatMul"
  input: "^train/gradients/fc1/fc1/MatMul_grad/MatMul_1"
}
node {
  name: "train/gradients/fc1/fc1/MatMul_grad/tuple/control_dependency"
  op: "Identity"
  input: "train/gradients/fc1/fc1/MatMul_grad/MatMul"
  input: "^train/gradients/fc1/fc1/MatMul_grad/tuple/group_deps"
  attr {
    key: "T"
    value {
      type: DT_FLOAT
    }
  }
  attr {
    key: "_class"
    value {
      list {
        s: "loc:@train/gradients/fc1/fc1/MatMul_grad/MatMul"
      }
    }
  }
}
node {
  name: "train/gradients/fc1/fc1/MatMul_grad/tuple/control_dependency_1"
  op: "Identity"
  input: "train/gradients/fc1/fc1/MatMul_grad/MatMul_1"
  input: "^train/gradients/fc1/fc1/MatMul_grad/tuple/group_deps"
  attr {
    key: "T"
    value {
      type: DT_FLOAT
    }
  }
  attr {
    key: "_class"
    value {
      list {
        s: "loc:@train/gradients/fc1/fc1/MatMul_grad/MatMul_1"
      }
    }
  }
}
node {
  name: "train/gradients/pool3/Reshape_grad/Shape"
  op: "Shape"
  input: "pool3/MaxPool"
  attr {
    key: "T"
    value {
      type: DT_FLOAT
    }
  }
  attr {
    key: "out_type"
    value {
      type: DT_INT32
    }
  }
}
node {
  name: "train/gradients/pool3/Reshape_grad/Reshape"
  op: "Reshape"
  input: "train/gradients/fc1/fc1/MatMul_grad/tuple/control_dependency"
  input: "train/gradients/pool3/Reshape_grad/Shape"
  attr {
    key: "T"
    value {
      type: DT_FLOAT
    }
  }
  attr {
    key: "Tshape"
    value {
      type: DT_INT32
    }
  }
}
node {
  name: "train/gradients/pool3/MaxPool_grad/MaxPoolGrad"
  op: "MaxPoolGrad"
  input: "conv2/Relu"
  input: "pool3/MaxPool"
  input: "train/gradients/pool3/Reshape_grad/Reshape"
  attr {
    key: "T"
    value {
      type: DT_FLOAT
    }
  }
  attr {
    key: "data_format"
    value {
      s: "NHWC"
    }
  }
  attr {
    key: "ksize"
    value {
      list {
        i: 1
        i: 2
        i: 2
        i: 1
      }
    }
  }
  attr {
    key: "padding"
    value {
      s: "VALID"
    }
  }
  attr {
    key: "strides"
    value {
      list {
        i: 1
        i: 2
        i: 2
        i: 1
      }
    }
  }
}
node {
  name: "train/gradients/conv2/Relu_grad/ReluGrad"
  op: "ReluGrad"
  input: "train/gradients/pool3/MaxPool_grad/MaxPoolGrad"
  input: "conv2/Relu"
  attr {
    key: "T"
    value {
      type: DT_FLOAT
    }
  }
}
node {
  name: "train/gradients/conv2/BiasAdd_grad/BiasAddGrad"
  op: "BiasAddGrad"
  input: "train/gradients/conv2/Relu_grad/ReluGrad"
  attr {
    key: "T"
    value {
      type: DT_FLOAT
    }
  }
  attr {
    key: "data_format"
    value {
      s: "NHWC"
    }
  }
}
node {
  name: "train/gradients/conv2/BiasAdd_grad/tuple/group_deps"
  op: "NoOp"
  input: "^train/gradients/conv2/BiasAdd_grad/BiasAddGrad"
  input: "^train/gradients/conv2/Relu_grad/ReluGrad"
}
node {
  name: "train/gradients/conv2/BiasAdd_grad/tuple/control_dependency"
  op: "Identity"
  input: "train/gradients/conv2/Relu_grad/ReluGrad"
  input: "^train/gradients/conv2/BiasAdd_grad/tuple/group_deps"
  attr {
    key: "T"
    value {
      type: DT_FLOAT
    }
  }
  attr {
    key: "_class"
    value {
      list {
        s: "loc:@train/gradients/conv2/Relu_grad/ReluGrad"
      }
    }
  }
}
node {
  name: "train/gradients/conv2/BiasAdd_grad/tuple/control_dependency_1"
  op: "Identity"
  input: "train/gradients/conv2/BiasAdd_grad/BiasAddGrad"
  input: "^train/gradients/conv2/BiasAdd_grad/tuple/group_deps"
  attr {
    key: "T"
    value {
      type: DT_FLOAT
    }
  }
  attr {
    key: "_class"
    value {
      list {
        s: "loc:@train/gradients/conv2/BiasAdd_grad/BiasAddGrad"
      }
    }
  }
}
node {
  name: "train/gradients/conv2/Conv2D_grad/ShapeN"
  op: "ShapeN"
  input: "conv1/Relu"
  input: "conv2/kernel/read"
  attr {
    key: "N"
    value {
      i: 2
    }
  }
  attr {
    key: "T"
    value {
      type: DT_FLOAT
    }
  }
  attr {
    key: "out_type"
    value {
      type: DT_INT32
    }
  }
}
node {
  name: "train/gradients/conv2/Conv2D_grad/Conv2DBackpropInput"
  op: "Conv2DBackpropInput"
  input: "train/gradients/conv2/Conv2D_grad/ShapeN"
  input: "conv2/kernel/read"
  input: "train/gradients/conv2/BiasAdd_grad/tuple/control_dependency"
  attr {
    key: "T"
    value {
      type: DT_FLOAT
    }
  }
  attr {
    key: "data_format"
    value {
      s: "NHWC"
    }
  }
  attr {
    key: "dilations"
    value {
      list {
        i: 1
        i: 1
        i: 1
        i: 1
      }
    }
  }
  attr {
    key: "padding"
    value {
      s: "SAME"
    }
  }
  attr {
    key: "strides"
    value {
      list {
        i: 1
        i: 2
        i: 2
        i: 1
      }
    }
  }
  attr {
    key: "use_cudnn_on_gpu"
    value {
      b: true
    }
  }
}
node {
  name: "train/gradients/conv2/Conv2D_grad/Conv2DBackpropFilter"
  op: "Conv2DBackpropFilter"
  input: "conv1/Relu"
  input: "train/gradients/conv2/Conv2D_grad/ShapeN:1"
  input: "train/gradients/conv2/BiasAdd_grad/tuple/control_dependency"
  attr {
    key: "T"
    value {
      type: DT_FLOAT
    }
  }
  attr {
    key: "data_format"
    value {
      s: "NHWC"
    }
  }
  attr {
    key: "dilations"
    value {
      list {
        i: 1
        i: 1
        i: 1
        i: 1
      }
    }
  }
  attr {
    key: "padding"
    value {
      s: "SAME"
    }
  }
  attr {
    key: "strides"
    value {
      list {
        i: 1
        i: 2
        i: 2
        i: 1
      }
    }
  }
  attr {
    key: "use_cudnn_on_gpu"
    value {
      b: true
    }
  }
}
node {
  name: "train/gradients/conv2/Conv2D_grad/tuple/group_deps"
  op: "NoOp"
  input: "^train/gradients/conv2/Conv2D_grad/Conv2DBackpropFilter"
  input: "^train/gradients/conv2/Conv2D_grad/Conv2DBackpropInput"
}
node {
  name: "train/gradients/conv2/Conv2D_grad/tuple/control_dependency"
  op: "Identity"
  input: "train/gradients/conv2/Conv2D_grad/Conv2DBackpropInput"
  input: "^train/gradients/conv2/Conv2D_grad/tuple/group_deps"
  attr {
    key: "T"
    value {
      type: DT_FLOAT
    }
  }
  attr {
    key: "_class"
    value {
      list {
        s: "loc:@train/gradients/conv2/Conv2D_grad/Conv2DBackpropInput"
      }
    }
  }
}
node {
  name: "train/gradients/conv2/Conv2D_grad/tuple/control_dependency_1"
  op: "Identity"
  input: "train/gradients/conv2/Conv2D_grad/Conv2DBackpropFilter"
  input: "^train/gradients/conv2/Conv2D_grad/tuple/group_deps"
  attr {
    key: "T"
    value {
      type: DT_FLOAT
    }
  }
  attr {
    key: "_class"
    value {
      list {
        s: "loc:@train/gradients/conv2/Conv2D_grad/Conv2DBackpropFilter"
      }
    }
  }
}
node {
  name: "train/gradients/conv1/Relu_grad/ReluGrad"
  op: "ReluGrad"
  input: "train/gradients/conv2/Conv2D_grad/tuple/control_dependency"
  input: "conv1/Relu"
  attr {
    key: "T"
    value {
      type: DT_FLOAT
    }
  }
}
node {
  name: "train/gradients/conv1/BiasAdd_grad/BiasAddGrad"
  op: "BiasAddGrad"
  input: "train/gradients/conv1/Relu_grad/ReluGrad"
  attr {
    key: "T"
    value {
      type: DT_FLOAT
    }
  }
  attr {
    key: "data_format"
    value {
      s: "NHWC"
    }
  }
}
node {
  name: "train/gradients/conv1/BiasAdd_grad/tuple/group_deps"
  op: "NoOp"
  input: "^train/gradients/conv1/BiasAdd_grad/BiasAddGrad"
  input: "^train/gradients/conv1/Relu_grad/ReluGrad"
}
node {
  name: "train/gradients/conv1/BiasAdd_grad/tuple/control_dependency"
  op: "Identity"
  input: "train/gradients/conv1/Relu_grad/ReluGrad"
  input: "^train/gradients/conv1/BiasAdd_grad/tuple/group_deps"
  attr {
    key: "T"
    value {
      type: DT_FLOAT
    }
  }
  attr {
    key: "_class"
    value {
      list {
        s: "loc:@train/gradients/conv1/Relu_grad/ReluGrad"
      }
    }
  }
}
node {
  name: "train/gradients/conv1/BiasAdd_grad/tuple/control_dependency_1"
  op: "Identity"
  input: "train/gradients/conv1/BiasAdd_grad/BiasAddGrad"
  input: "^train/gradients/conv1/BiasAdd_grad/tuple/group_deps"
  attr {
    key: "T"
    value {
      type: DT_FLOAT
    }
  }
  attr {
    key: "_class"
    value {
      list {
        s: "loc:@train/gradients/conv1/BiasAdd_grad/BiasAddGrad"
      }
    }
  }
}
node {
  name: "train/gradients/conv1/Conv2D_grad/ShapeN"
  op: "ShapeN"
  input: "inputs/Reshape"
  input: "conv1/kernel/read"
  attr {
    key: "N"
    value {
      i: 2
    }
  }
  attr {
    key: "T"
    value {
      type: DT_FLOAT
    }
  }
  attr {
    key: "out_type"
    value {
      type: DT_INT32
    }
  }
}
node {
  name: "train/gradients/conv1/Conv2D_grad/Conv2DBackpropInput"
  op: "Conv2DBackpropInput"
  input: "train/gradients/conv1/Conv2D_grad/ShapeN"
  input: "conv1/kernel/read"
  input: "train/gradients/conv1/BiasAdd_grad/tuple/control_dependency"
  attr {
    key: "T"
    value {
      type: DT_FLOAT
    }
  }
  attr {
    key: "data_format"
    value {
      s: "NHWC"
    }
  }
  attr {
    key: "dilations"
    value {
      list {
        i: 1
        i: 1
        i: 1
        i: 1
      }
    }
  }
  attr {
    key: "padding"
    value {
      s: "SAME"
    }
  }
  attr {
    key: "strides"
    value {
      list {
        i: 1
        i: 1
        i: 1
        i: 1
      }
    }
  }
  attr {
    key: "use_cudnn_on_gpu"
    value {
      b: true
    }
  }
}
node {
  name: "train/gradients/conv1/Conv2D_grad/Conv2DBackpropFilter"
  op: "Conv2DBackpropFilter"
  input: "inputs/Reshape"
  input: "train/gradients/conv1/Conv2D_grad/ShapeN:1"
  input: "train/gradients/conv1/BiasAdd_grad/tuple/control_dependency"
  attr {
    key: "T"
    value {
      type: DT_FLOAT
    }
  }
  attr {
    key: "data_format"
    value {
      s: "NHWC"
    }
  }
  attr {
    key: "dilations"
    value {
      list {
        i: 1
        i: 1
        i: 1
        i: 1
      }
    }
  }
  attr {
    key: "padding"
    value {
      s: "SAME"
    }
  }
  attr {
    key: "strides"
    value {
      list {
        i: 1
        i: 1
        i: 1
        i: 1
      }
    }
  }
  attr {
    key: "use_cudnn_on_gpu"
    value {
      b: true
    }
  }
}
node {
  name: "train/gradients/conv1/Conv2D_grad/tuple/group_deps"
  op: "NoOp"
  input: "^train/gradients/conv1/Conv2D_grad/Conv2DBackpropFilter"
  input: "^train/gradients/conv1/Conv2D_grad/Conv2DBackpropInput"
}
node {
  name: "train/gradients/conv1/Conv2D_grad/tuple/control_dependency"
  op: "Identity"
  input: "train/gradients/conv1/Conv2D_grad/Conv2DBackpropInput"
  input: "^train/gradients/conv1/Conv2D_grad/tuple/group_deps"
  attr {
    key: "T"
    value {
      type: DT_FLOAT
    }
  }
  attr {
    key: "_class"
    value {
      list {
        s: "loc:@train/gradients/conv1/Conv2D_grad/Conv2DBackpropInput"
      }
    }
  }
}
node {
  name: "train/gradients/conv1/Conv2D_grad/tuple/control_dependency_1"
  op: "Identity"
  input: "train/gradients/conv1/Conv2D_grad/Conv2DBackpropFilter"
  input: "^train/gradients/conv1/Conv2D_grad/tuple/group_deps"
  attr {
    key: "T"
    value {
      type: DT_FLOAT
    }
  }
  attr {
    key: "_class"
    value {
      list {
        s: "loc:@train/gradients/conv1/Conv2D_grad/Conv2DBackpropFilter"
      }
    }
  }
}
node {
  name: "train/beta1_power/initial_value"
  op: "Const"
  attr {
    key: "_class"
    value {
      list {
        s: "loc:@conv1/bias"
      }
    }
  }
  attr {
    key: "dtype"
    value {
      type: DT_FLOAT
    }
  }
  attr {
    key: "value"
    value {
      tensor {
        dtype: DT_FLOAT
        tensor_shape {
        }
        float_val: 0.899999976158
      }
    }
  }
}
node {
  name: "train/beta1_power"
  op: "VariableV2"
  attr {
    key: "_class"
    value {
      list {
        s: "loc:@conv1/bias"
      }
    }
  }
  attr {
    key: "container"
    value {
      s: ""
    }
  }
  attr {
    key: "dtype"
    value {
      type: DT_FLOAT
    }
  }
  attr {
    key: "shape"
    value {
      shape {
      }
    }
  }
  attr {
    key: "shared_name"
    value {
      s: ""
    }
  }
}
node {
  name: "train/beta1_power/Assign"
  op: "Assign"
  input: "train/beta1_power"
  input: "train/beta1_power/initial_value"
  attr {
    key: "T"
    value {
      type: DT_FLOAT
    }
  }
  attr {
    key: "_class"
    value {
      list {
        s: "loc:@conv1/bias"
      }
    }
  }
  attr {
    key: "use_locking"
    value {
      b: true
    }
  }
  attr {
    key: "validate_shape"
    value {
      b: true
    }
  }
}
node {
  name: "train/beta1_power/read"
  op: "Identity"
  input: "train/beta1_power"
  attr {
    key: "T"
    value {
      type: DT_FLOAT
    }
  }
  attr {
    key: "_class"
    value {
      list {
        s: "loc:@conv1/bias"
      }
    }
  }
}
node {
  name: "train/beta2_power/initial_value"
  op: "Const"
  attr {
    key: "_class"
    value {
      list {
        s: "loc:@conv1/bias"
      }
    }
  }
  attr {
    key: "dtype"
    value {
      type: DT_FLOAT
    }
  }
  attr {
    key: "value"
    value {
      tensor {
        dtype: DT_FLOAT
        tensor_shape {
        }
        float_val: 0.999000012875
      }
    }
  }
}
node {
  name: "train/beta2_power"
  op: "VariableV2"
  attr {
    key: "_class"
    value {
      list {
        s: "loc:@conv1/bias"
      }
    }
  }
  attr {
    key: "container"
    value {
      s: ""
    }
  }
  attr {
    key: "dtype"
    value {
      type: DT_FLOAT
    }
  }
  attr {
    key: "shape"
    value {
      shape {
      }
    }
  }
  attr {
    key: "shared_name"
    value {
      s: ""
    }
  }
}
node {
  name: "train/beta2_power/Assign"
  op: "Assign"
  input: "train/beta2_power"
  input: "train/beta2_power/initial_value"
  attr {
    key: "T"
    value {
      type: DT_FLOAT
    }
  }
  attr {
    key: "_class"
    value {
      list {
        s: "loc:@conv1/bias"
      }
    }
  }
  attr {
    key: "use_locking"
    value {
      b: true
    }
  }
  attr {
    key: "validate_shape"
    value {
      b: true
    }
  }
}
node {
  name: "train/beta2_power/read"
  op: "Identity"
  input: "train/beta2_power"
  attr {
    key: "T"
    value {
      type: DT_FLOAT
    }
  }
  attr {
    key: "_class"
    value {
      list {
        s: "loc:@conv1/bias"
      }
    }
  }
}
node {
  name: "conv1/kernel/Adam/Initializer/zeros"
  op: "Const"
  attr {
    key: "_class"
    value {
      list {
        s: "loc:@conv1/kernel"
      }
    }
  }
  attr {
    key: "dtype"
    value {
      type: DT_FLOAT
    }
  }
  attr {
    key: "value"
    value {
      tensor {
        dtype: DT_FLOAT
        tensor_shape {
          dim {
            size: 3
          }
          dim {
            size: 3
          }
          dim {
            size: 1
          }
          dim {
            size: 32
          }
        }
        float_val: 0.0
      }
    }
  }
}
node {
  name: "conv1/kernel/Adam"
  op: "VariableV2"
  attr {
    key: "_class"
    value {
      list {
        s: "loc:@conv1/kernel"
      }
    }
  }
  attr {
    key: "container"
    value {
      s: ""
    }
  }
  attr {
    key: "dtype"
    value {
      type: DT_FLOAT
    }
  }
  attr {
    key: "shape"
    value {
      shape {
        dim {
          size: 3
        }
        dim {
          size: 3
        }
        dim {
          size: 1
        }
        dim {
          size: 32
        }
      }
    }
  }
  attr {
    key: "shared_name"
    value {
      s: ""
    }
  }
}
node {
  name: "conv1/kernel/Adam/Assign"
  op: "Assign"
  input: "conv1/kernel/Adam"
  input: "conv1/kernel/Adam/Initializer/zeros"
  attr {
    key: "T"
    value {
      type: DT_FLOAT
    }
  }
  attr {
    key: "_class"
    value {
      list {
        s: "loc:@conv1/kernel"
      }
    }
  }
  attr {
    key: "use_locking"
    value {
      b: true
    }
  }
  attr {
    key: "validate_shape"
    value {
      b: true
    }
  }
}
node {
  name: "conv1/kernel/Adam/read"
  op: "Identity"
  input: "conv1/kernel/Adam"
  attr {
    key: "T"
    value {
      type: DT_FLOAT
    }
  }
  attr {
    key: "_class"
    value {
      list {
        s: "loc:@conv1/kernel"
      }
    }
  }
}
node {
  name: "conv1/kernel/Adam_1/Initializer/zeros"
  op: "Const"
  attr {
    key: "_class"
    value {
      list {
        s: "loc:@conv1/kernel"
      }
    }
  }
  attr {
    key: "dtype"
    value {
      type: DT_FLOAT
    }
  }
  attr {
    key: "value"
    value {
      tensor {
        dtype: DT_FLOAT
        tensor_shape {
          dim {
            size: 3
          }
          dim {
            size: 3
          }
          dim {
            size: 1
          }
          dim {
            size: 32
          }
        }
        float_val: 0.0
      }
    }
  }
}
node {
  name: "conv1/kernel/Adam_1"
  op: "VariableV2"
  attr {
    key: "_class"
    value {
      list {
        s: "loc:@conv1/kernel"
      }
    }
  }
  attr {
    key: "container"
    value {
      s: ""
    }
  }
  attr {
    key: "dtype"
    value {
      type: DT_FLOAT
    }
  }
  attr {
    key: "shape"
    value {
      shape {
        dim {
          size: 3
        }
        dim {
          size: 3
        }
        dim {
          size: 1
        }
        dim {
          size: 32
        }
      }
    }
  }
  attr {
    key: "shared_name"
    value {
      s: ""
    }
  }
}
node {
  name: "conv1/kernel/Adam_1/Assign"
  op: "Assign"
  input: "conv1/kernel/Adam_1"
  input: "conv1/kernel/Adam_1/Initializer/zeros"
  attr {
    key: "T"
    value {
      type: DT_FLOAT
    }
  }
  attr {
    key: "_class"
    value {
      list {
        s: "loc:@conv1/kernel"
      }
    }
  }
  attr {
    key: "use_locking"
    value {
      b: true
    }
  }
  attr {
    key: "validate_shape"
    value {
      b: true
    }
  }
}
node {
  name: "conv1/kernel/Adam_1/read"
  op: "Identity"
  input: "conv1/kernel/Adam_1"
  attr {
    key: "T"
    value {
      type: DT_FLOAT
    }
  }
  attr {
    key: "_class"
    value {
      list {
        s: "loc:@conv1/kernel"
      }
    }
  }
}
node {
  name: "conv1/bias/Adam/Initializer/zeros"
  op: "Const"
  attr {
    key: "_class"
    value {
      list {
        s: "loc:@conv1/bias"
      }
    }
  }
  attr {
    key: "dtype"
    value {
      type: DT_FLOAT
    }
  }
  attr {
    key: "value"
    value {
      tensor {
        dtype: DT_FLOAT
        tensor_shape {
          dim {
            size: 32
          }
        }
        float_val: 0.0
      }
    }
  }
}
node {
  name: "conv1/bias/Adam"
  op: "VariableV2"
  attr {
    key: "_class"
    value {
      list {
        s: "loc:@conv1/bias"
      }
    }
  }
  attr {
    key: "container"
    value {
      s: ""
    }
  }
  attr {
    key: "dtype"
    value {
      type: DT_FLOAT
    }
  }
  attr {
    key: "shape"
    value {
      shape {
        dim {
          size: 32
        }
      }
    }
  }
  attr {
    key: "shared_name"
    value {
      s: ""
    }
  }
}
node {
  name: "conv1/bias/Adam/Assign"
  op: "Assign"
  input: "conv1/bias/Adam"
  input: "conv1/bias/Adam/Initializer/zeros"
  attr {
    key: "T"
    value {
      type: DT_FLOAT
    }
  }
  attr {
    key: "_class"
    value {
      list {
        s: "loc:@conv1/bias"
      }
    }
  }
  attr {
    key: "use_locking"
    value {
      b: true
    }
  }
  attr {
    key: "validate_shape"
    value {
      b: true
    }
  }
}
node {
  name: "conv1/bias/Adam/read"
  op: "Identity"
  input: "conv1/bias/Adam"
  attr {
    key: "T"
    value {
      type: DT_FLOAT
    }
  }
  attr {
    key: "_class"
    value {
      list {
        s: "loc:@conv1/bias"
      }
    }
  }
}
node {
  name: "conv1/bias/Adam_1/Initializer/zeros"
  op: "Const"
  attr {
    key: "_class"
    value {
      list {
        s: "loc:@conv1/bias"
      }
    }
  }
  attr {
    key: "dtype"
    value {
      type: DT_FLOAT
    }
  }
  attr {
    key: "value"
    value {
      tensor {
        dtype: DT_FLOAT
        tensor_shape {
          dim {
            size: 32
          }
        }
        float_val: 0.0
      }
    }
  }
}
node {
  name: "conv1/bias/Adam_1"
  op: "VariableV2"
  attr {
    key: "_class"
    value {
      list {
        s: "loc:@conv1/bias"
      }
    }
  }
  attr {
    key: "container"
    value {
      s: ""
    }
  }
  attr {
    key: "dtype"
    value {
      type: DT_FLOAT
    }
  }
  attr {
    key: "shape"
    value {
      shape {
        dim {
          size: 32
        }
      }
    }
  }
  attr {
    key: "shared_name"
    value {
      s: ""
    }
  }
}
node {
  name: "conv1/bias/Adam_1/Assign"
  op: "Assign"
  input: "conv1/bias/Adam_1"
  input: "conv1/bias/Adam_1/Initializer/zeros"
  attr {
    key: "T"
    value {
      type: DT_FLOAT
    }
  }
  attr {
    key: "_class"
    value {
      list {
        s: "loc:@conv1/bias"
      }
    }
  }
  attr {
    key: "use_locking"
    value {
      b: true
    }
  }
  attr {
    key: "validate_shape"
    value {
      b: true
    }
  }
}
node {
  name: "conv1/bias/Adam_1/read"
  op: "Identity"
  input: "conv1/bias/Adam_1"
  attr {
    key: "T"
    value {
      type: DT_FLOAT
    }
  }
  attr {
    key: "_class"
    value {
      list {
        s: "loc:@conv1/bias"
      }
    }
  }
}
node {
  name: "conv2/kernel/Adam/Initializer/zeros/shape_as_tensor"
  op: "Const"
  attr {
    key: "_class"
    value {
      list {
        s: "loc:@conv2/kernel"
      }
    }
  }
  attr {
    key: "dtype"
    value {
      type: DT_INT32
    }
  }
  attr {
    key: "value"
    value {
      tensor {
        dtype: DT_INT32
        tensor_shape {
          dim {
            size: 4
          }
        }
        tensor_content: "\003\000\000\000\003\000\000\000 \000\000\000@\000\000\000"
      }
    }
  }
}
node {
  name: "conv2/kernel/Adam/Initializer/zeros/Const"
  op: "Const"
  attr {
    key: "_class"
    value {
      list {
        s: "loc:@conv2/kernel"
      }
    }
  }
  attr {
    key: "dtype"
    value {
      type: DT_FLOAT
    }
  }
  attr {
    key: "value"
    value {
      tensor {
        dtype: DT_FLOAT
        tensor_shape {
        }
        float_val: 0.0
      }
    }
  }
}
node {
  name: "conv2/kernel/Adam/Initializer/zeros"
  op: "Fill"
  input: "conv2/kernel/Adam/Initializer/zeros/shape_as_tensor"
  input: "conv2/kernel/Adam/Initializer/zeros/Const"
  attr {
    key: "T"
    value {
      type: DT_FLOAT
    }
  }
  attr {
    key: "_class"
    value {
      list {
        s: "loc:@conv2/kernel"
      }
    }
  }
  attr {
    key: "index_type"
    value {
      type: DT_INT32
    }
  }
}
node {
  name: "conv2/kernel/Adam"
  op: "VariableV2"
  attr {
    key: "_class"
    value {
      list {
        s: "loc:@conv2/kernel"
      }
    }
  }
  attr {
    key: "container"
    value {
      s: ""
    }
  }
  attr {
    key: "dtype"
    value {
      type: DT_FLOAT
    }
  }
  attr {
    key: "shape"
    value {
      shape {
        dim {
          size: 3
        }
        dim {
          size: 3
        }
        dim {
          size: 32
        }
        dim {
          size: 64
        }
      }
    }
  }
  attr {
    key: "shared_name"
    value {
      s: ""
    }
  }
}
node {
  name: "conv2/kernel/Adam/Assign"
  op: "Assign"
  input: "conv2/kernel/Adam"
  input: "conv2/kernel/Adam/Initializer/zeros"
  attr {
    key: "T"
    value {
      type: DT_FLOAT
    }
  }
  attr {
    key: "_class"
    value {
      list {
        s: "loc:@conv2/kernel"
      }
    }
  }
  attr {
    key: "use_locking"
    value {
      b: true
    }
  }
  attr {
    key: "validate_shape"
    value {
      b: true
    }
  }
}
node {
  name: "conv2/kernel/Adam/read"
  op: "Identity"
  input: "conv2/kernel/Adam"
  attr {
    key: "T"
    value {
      type: DT_FLOAT
    }
  }
  attr {
    key: "_class"
    value {
      list {
        s: "loc:@conv2/kernel"
      }
    }
  }
}
node {
  name: "conv2/kernel/Adam_1/Initializer/zeros/shape_as_tensor"
  op: "Const"
  attr {
    key: "_class"
    value {
      list {
        s: "loc:@conv2/kernel"
      }
    }
  }
  attr {
    key: "dtype"
    value {
      type: DT_INT32
    }
  }
  attr {
    key: "value"
    value {
      tensor {
        dtype: DT_INT32
        tensor_shape {
          dim {
            size: 4
          }
        }
        tensor_content: "\003\000\000\000\003\000\000\000 \000\000\000@\000\000\000"
      }
    }
  }
}
node {
  name: "conv2/kernel/Adam_1/Initializer/zeros/Const"
  op: "Const"
  attr {
    key: "_class"
    value {
      list {
        s: "loc:@conv2/kernel"
      }
    }
  }
  attr {
    key: "dtype"
    value {
      type: DT_FLOAT
    }
  }
  attr {
    key: "value"
    value {
      tensor {
        dtype: DT_FLOAT
        tensor_shape {
        }
        float_val: 0.0
      }
    }
  }
}
node {
  name: "conv2/kernel/Adam_1/Initializer/zeros"
  op: "Fill"
  input: "conv2/kernel/Adam_1/Initializer/zeros/shape_as_tensor"
  input: "conv2/kernel/Adam_1/Initializer/zeros/Const"
  attr {
    key: "T"
    value {
      type: DT_FLOAT
    }
  }
  attr {
    key: "_class"
    value {
      list {
        s: "loc:@conv2/kernel"
      }
    }
  }
  attr {
    key: "index_type"
    value {
      type: DT_INT32
    }
  }
}
node {
  name: "conv2/kernel/Adam_1"
  op: "VariableV2"
  attr {
    key: "_class"
    value {
      list {
        s: "loc:@conv2/kernel"
      }
    }
  }
  attr {
    key: "container"
    value {
      s: ""
    }
  }
  attr {
    key: "dtype"
    value {
      type: DT_FLOAT
    }
  }
  attr {
    key: "shape"
    value {
      shape {
        dim {
          size: 3
        }
        dim {
          size: 3
        }
        dim {
          size: 32
        }
        dim {
          size: 64
        }
      }
    }
  }
  attr {
    key: "shared_name"
    value {
      s: ""
    }
  }
}
node {
  name: "conv2/kernel/Adam_1/Assign"
  op: "Assign"
  input: "conv2/kernel/Adam_1"
  input: "conv2/kernel/Adam_1/Initializer/zeros"
  attr {
    key: "T"
    value {
      type: DT_FLOAT
    }
  }
  attr {
    key: "_class"
    value {
      list {
        s: "loc:@conv2/kernel"
      }
    }
  }
  attr {
    key: "use_locking"
    value {
      b: true
    }
  }
  attr {
    key: "validate_shape"
    value {
      b: true
    }
  }
}
node {
  name: "conv2/kernel/Adam_1/read"
  op: "Identity"
  input: "conv2/kernel/Adam_1"
  attr {
    key: "T"
    value {
      type: DT_FLOAT
    }
  }
  attr {
    key: "_class"
    value {
      list {
        s: "loc:@conv2/kernel"
      }
    }
  }
}
node {
  name: "conv2/bias/Adam/Initializer/zeros"
  op: "Const"
  attr {
    key: "_class"
    value {
      list {
        s: "loc:@conv2/bias"
      }
    }
  }
  attr {
    key: "dtype"
    value {
      type: DT_FLOAT
    }
  }
  attr {
    key: "value"
    value {
      tensor {
        dtype: DT_FLOAT
        tensor_shape {
          dim {
            size: 64
          }
        }
        float_val: 0.0
      }
    }
  }
}
node {
  name: "conv2/bias/Adam"
  op: "VariableV2"
  attr {
    key: "_class"
    value {
      list {
        s: "loc:@conv2/bias"
      }
    }
  }
  attr {
    key: "container"
    value {
      s: ""
    }
  }
  attr {
    key: "dtype"
    value {
      type: DT_FLOAT
    }
  }
  attr {
    key: "shape"
    value {
      shape {
        dim {
          size: 64
        }
      }
    }
  }
  attr {
    key: "shared_name"
    value {
      s: ""
    }
  }
}
node {
  name: "conv2/bias/Adam/Assign"
  op: "Assign"
  input: "conv2/bias/Adam"
  input: "conv2/bias/Adam/Initializer/zeros"
  attr {
    key: "T"
    value {
      type: DT_FLOAT
    }
  }
  attr {
    key: "_class"
    value {
      list {
        s: "loc:@conv2/bias"
      }
    }
  }
  attr {
    key: "use_locking"
    value {
      b: true
    }
  }
  attr {
    key: "validate_shape"
    value {
      b: true
    }
  }
}
node {
  name: "conv2/bias/Adam/read"
  op: "Identity"
  input: "conv2/bias/Adam"
  attr {
    key: "T"
    value {
      type: DT_FLOAT
    }
  }
  attr {
    key: "_class"
    value {
      list {
        s: "loc:@conv2/bias"
      }
    }
  }
}
node {
  name: "conv2/bias/Adam_1/Initializer/zeros"
  op: "Const"
  attr {
    key: "_class"
    value {
      list {
        s: "loc:@conv2/bias"
      }
    }
  }
  attr {
    key: "dtype"
    value {
      type: DT_FLOAT
    }
  }
  attr {
    key: "value"
    value {
      tensor {
        dtype: DT_FLOAT
        tensor_shape {
          dim {
            size: 64
          }
        }
        float_val: 0.0
      }
    }
  }
}
node {
  name: "conv2/bias/Adam_1"
  op: "VariableV2"
  attr {
    key: "_class"
    value {
      list {
        s: "loc:@conv2/bias"
      }
    }
  }
  attr {
    key: "container"
    value {
      s: ""
    }
  }
  attr {
    key: "dtype"
    value {
      type: DT_FLOAT
    }
  }
  attr {
    key: "shape"
    value {
      shape {
        dim {
          size: 64
        }
      }
    }
  }
  attr {
    key: "shared_name"
    value {
      s: ""
    }
  }
}
node {
  name: "conv2/bias/Adam_1/Assign"
  op: "Assign"
  input: "conv2/bias/Adam_1"
  input: "conv2/bias/Adam_1/Initializer/zeros"
  attr {
    key: "T"
    value {
      type: DT_FLOAT
    }
  }
  attr {
    key: "_class"
    value {
      list {
        s: "loc:@conv2/bias"
      }
    }
  }
  attr {
    key: "use_locking"
    value {
      b: true
    }
  }
  attr {
    key: "validate_shape"
    value {
      b: true
    }
  }
}
node {
  name: "conv2/bias/Adam_1/read"
  op: "Identity"
  input: "conv2/bias/Adam_1"
  attr {
    key: "T"
    value {
      type: DT_FLOAT
    }
  }
  attr {
    key: "_class"
    value {
      list {
        s: "loc:@conv2/bias"
      }
    }
  }
}
node {
  name: "fc1/kernel/Adam/Initializer/zeros/shape_as_tensor"
  op: "Const"
  attr {
    key: "_class"
    value {
      list {
        s: "loc:@fc1/kernel"
      }
    }
  }
  attr {
    key: "dtype"
    value {
      type: DT_INT32
    }
  }
  attr {
    key: "value"
    value {
      tensor {
        dtype: DT_INT32
        tensor_shape {
          dim {
            size: 2
          }
        }
        tensor_content: "@\014\000\000@\000\000\000"
      }
    }
  }
}
node {
  name: "fc1/kernel/Adam/Initializer/zeros/Const"
  op: "Const"
  attr {
    key: "_class"
    value {
      list {
        s: "loc:@fc1/kernel"
      }
    }
  }
  attr {
    key: "dtype"
    value {
      type: DT_FLOAT
    }
  }
  attr {
    key: "value"
    value {
      tensor {
        dtype: DT_FLOAT
        tensor_shape {
        }
        float_val: 0.0
      }
    }
  }
}
node {
  name: "fc1/kernel/Adam/Initializer/zeros"
  op: "Fill"
  input: "fc1/kernel/Adam/Initializer/zeros/shape_as_tensor"
  input: "fc1/kernel/Adam/Initializer/zeros/Const"
  attr {
    key: "T"
    value {
      type: DT_FLOAT
    }
  }
  attr {
    key: "_class"
    value {
      list {
        s: "loc:@fc1/kernel"
      }
    }
  }
  attr {
    key: "index_type"
    value {
      type: DT_INT32
    }
  }
}
node {
  name: "fc1/kernel/Adam"
  op: "VariableV2"
  attr {
    key: "_class"
    value {
      list {
        s: "loc:@fc1/kernel"
      }
    }
  }
  attr {
    key: "container"
    value {
      s: ""
    }
  }
  attr {
    key: "dtype"
    value {
      type: DT_FLOAT
    }
  }
  attr {
    key: "shape"
    value {
      shape {
        dim {
          size: 3136
        }
        dim {
          size: 64
        }
      }
    }
  }
  attr {
    key: "shared_name"
    value {
      s: ""
    }
  }
}
node {
  name: "fc1/kernel/Adam/Assign"
  op: "Assign"
  input: "fc1/kernel/Adam"
  input: "fc1/kernel/Adam/Initializer/zeros"
  attr {
    key: "T"
    value {
      type: DT_FLOAT
    }
  }
  attr {
    key: "_class"
    value {
      list {
        s: "loc:@fc1/kernel"
      }
    }
  }
  attr {
    key: "use_locking"
    value {
      b: true
    }
  }
  attr {
    key: "validate_shape"
    value {
      b: true
    }
  }
}
node {
  name: "fc1/kernel/Adam/read"
  op: "Identity"
  input: "fc1/kernel/Adam"
  attr {
    key: "T"
    value {
      type: DT_FLOAT
    }
  }
  attr {
    key: "_class"
    value {
      list {
        s: "loc:@fc1/kernel"
      }
    }
  }
}
node {
  name: "fc1/kernel/Adam_1/Initializer/zeros/shape_as_tensor"
  op: "Const"
  attr {
    key: "_class"
    value {
      list {
        s: "loc:@fc1/kernel"
      }
    }
  }
  attr {
    key: "dtype"
    value {
      type: DT_INT32
    }
  }
  attr {
    key: "value"
    value {
      tensor {
        dtype: DT_INT32
        tensor_shape {
          dim {
            size: 2
          }
        }
        tensor_content: "@\014\000\000@\000\000\000"
      }
    }
  }
}
node {
  name: "fc1/kernel/Adam_1/Initializer/zeros/Const"
  op: "Const"
  attr {
    key: "_class"
    value {
      list {
        s: "loc:@fc1/kernel"
      }
    }
  }
  attr {
    key: "dtype"
    value {
      type: DT_FLOAT
    }
  }
  attr {
    key: "value"
    value {
      tensor {
        dtype: DT_FLOAT
        tensor_shape {
        }
        float_val: 0.0
      }
    }
  }
}
node {
  name: "fc1/kernel/Adam_1/Initializer/zeros"
  op: "Fill"
  input: "fc1/kernel/Adam_1/Initializer/zeros/shape_as_tensor"
  input: "fc1/kernel/Adam_1/Initializer/zeros/Const"
  attr {
    key: "T"
    value {
      type: DT_FLOAT
    }
  }
  attr {
    key: "_class"
    value {
      list {
        s: "loc:@fc1/kernel"
      }
    }
  }
  attr {
    key: "index_type"
    value {
      type: DT_INT32
    }
  }
}
node {
  name: "fc1/kernel/Adam_1"
  op: "VariableV2"
  attr {
    key: "_class"
    value {
      list {
        s: "loc:@fc1/kernel"
      }
    }
  }
  attr {
    key: "container"
    value {
      s: ""
    }
  }
  attr {
    key: "dtype"
    value {
      type: DT_FLOAT
    }
  }
  attr {
    key: "shape"
    value {
      shape {
        dim {
          size: 3136
        }
        dim {
          size: 64
        }
      }
    }
  }
  attr {
    key: "shared_name"
    value {
      s: ""
    }
  }
}
node {
  name: "fc1/kernel/Adam_1/Assign"
  op: "Assign"
  input: "fc1/kernel/Adam_1"
  input: "fc1/kernel/Adam_1/Initializer/zeros"
  attr {
    key: "T"
    value {
      type: DT_FLOAT
    }
  }
  attr {
    key: "_class"
    value {
      list {
        s: "loc:@fc1/kernel"
      }
    }
  }
  attr {
    key: "use_locking"
    value {
      b: true
    }
  }
  attr {
    key: "validate_shape"
    value {
      b: true
    }
  }
}
node {
  name: "fc1/kernel/Adam_1/read"
  op: "Identity"
  input: "fc1/kernel/Adam_1"
  attr {
    key: "T"
    value {
      type: DT_FLOAT
    }
  }
  attr {
    key: "_class"
    value {
      list {
        s: "loc:@fc1/kernel"
      }
    }
  }
}
node {
  name: "fc1/bias/Adam/Initializer/zeros"
  op: "Const"
  attr {
    key: "_class"
    value {
      list {
        s: "loc:@fc1/bias"
      }
    }
  }
  attr {
    key: "dtype"
    value {
      type: DT_FLOAT
    }
  }
  attr {
    key: "value"
    value {
      tensor {
        dtype: DT_FLOAT
        tensor_shape {
          dim {
            size: 64
          }
        }
        float_val: 0.0
      }
    }
  }
}
node {
  name: "fc1/bias/Adam"
  op: "VariableV2"
  attr {
    key: "_class"
    value {
      list {
        s: "loc:@fc1/bias"
      }
    }
  }
  attr {
    key: "container"
    value {
      s: ""
    }
  }
  attr {
    key: "dtype"
    value {
      type: DT_FLOAT
    }
  }
  attr {
    key: "shape"
    value {
      shape {
        dim {
          size: 64
        }
      }
    }
  }
  attr {
    key: "shared_name"
    value {
      s: ""
    }
  }
}
node {
  name: "fc1/bias/Adam/Assign"
  op: "Assign"
  input: "fc1/bias/Adam"
  input: "fc1/bias/Adam/Initializer/zeros"
  attr {
    key: "T"
    value {
      type: DT_FLOAT
    }
  }
  attr {
    key: "_class"
    value {
      list {
        s: "loc:@fc1/bias"
      }
    }
  }
  attr {
    key: "use_locking"
    value {
      b: true
    }
  }
  attr {
    key: "validate_shape"
    value {
      b: true
    }
  }
}
node {
  name: "fc1/bias/Adam/read"
  op: "Identity"
  input: "fc1/bias/Adam"
  attr {
    key: "T"
    value {
      type: DT_FLOAT
    }
  }
  attr {
    key: "_class"
    value {
      list {
        s: "loc:@fc1/bias"
      }
    }
  }
}
node {
  name: "fc1/bias/Adam_1/Initializer/zeros"
  op: "Const"
  attr {
    key: "_class"
    value {
      list {
        s: "loc:@fc1/bias"
      }
    }
  }
  attr {
    key: "dtype"
    value {
      type: DT_FLOAT
    }
  }
  attr {
    key: "value"
    value {
      tensor {
        dtype: DT_FLOAT
        tensor_shape {
          dim {
            size: 64
          }
        }
        float_val: 0.0
      }
    }
  }
}
node {
  name: "fc1/bias/Adam_1"
  op: "VariableV2"
  attr {
    key: "_class"
    value {
      list {
        s: "loc:@fc1/bias"
      }
    }
  }
  attr {
    key: "container"
    value {
      s: ""
    }
  }
  attr {
    key: "dtype"
    value {
      type: DT_FLOAT
    }
  }
  attr {
    key: "shape"
    value {
      shape {
        dim {
          size: 64
        }
      }
    }
  }
  attr {
    key: "shared_name"
    value {
      s: ""
    }
  }
}
node {
  name: "fc1/bias/Adam_1/Assign"
  op: "Assign"
  input: "fc1/bias/Adam_1"
  input: "fc1/bias/Adam_1/Initializer/zeros"
  attr {
    key: "T"
    value {
      type: DT_FLOAT
    }
  }
  attr {
    key: "_class"
    value {
      list {
        s: "loc:@fc1/bias"
      }
    }
  }
  attr {
    key: "use_locking"
    value {
      b: true
    }
  }
  attr {
    key: "validate_shape"
    value {
      b: true
    }
  }
}
node {
  name: "fc1/bias/Adam_1/read"
  op: "Identity"
  input: "fc1/bias/Adam_1"
  attr {
    key: "T"
    value {
      type: DT_FLOAT
    }
  }
  attr {
    key: "_class"
    value {
      list {
        s: "loc:@fc1/bias"
      }
    }
  }
}
node {
  name: "output/kernel/Adam/Initializer/zeros"
  op: "Const"
  attr {
    key: "_class"
    value {
      list {
        s: "loc:@output/kernel"
      }
    }
  }
  attr {
    key: "dtype"
    value {
      type: DT_FLOAT
    }
  }
  attr {
    key: "value"
    value {
      tensor {
        dtype: DT_FLOAT
        tensor_shape {
          dim {
            size: 64
          }
          dim {
            size: 10
          }
        }
        float_val: 0.0
      }
    }
  }
}
node {
  name: "output/kernel/Adam"
  op: "VariableV2"
  attr {
    key: "_class"
    value {
      list {
        s: "loc:@output/kernel"
      }
    }
  }
  attr {
    key: "container"
    value {
      s: ""
    }
  }
  attr {
    key: "dtype"
    value {
      type: DT_FLOAT
    }
  }
  attr {
    key: "shape"
    value {
      shape {
        dim {
          size: 64
        }
        dim {
          size: 10
        }
      }
    }
  }
  attr {
    key: "shared_name"
    value {
      s: ""
    }
  }
}
node {
  name: "output/kernel/Adam/Assign"
  op: "Assign"
  input: "output/kernel/Adam"
  input: "output/kernel/Adam/Initializer/zeros"
  attr {
    key: "T"
    value {
      type: DT_FLOAT
    }
  }
  attr {
    key: "_class"
    value {
      list {
        s: "loc:@output/kernel"
      }
    }
  }
  attr {
    key: "use_locking"
    value {
      b: true
    }
  }
  attr {
    key: "validate_shape"
    value {
      b: true
    }
  }
}
node {
  name: "output/kernel/Adam/read"
  op: "Identity"
  input: "output/kernel/Adam"
  attr {
    key: "T"
    value {
      type: DT_FLOAT
    }
  }
  attr {
    key: "_class"
    value {
      list {
        s: "loc:@output/kernel"
      }
    }
  }
}
node {
  name: "output/kernel/Adam_1/Initializer/zeros"
  op: "Const"
  attr {
    key: "_class"
    value {
      list {
        s: "loc:@output/kernel"
      }
    }
  }
  attr {
    key: "dtype"
    value {
      type: DT_FLOAT
    }
  }
  attr {
    key: "value"
    value {
      tensor {
        dtype: DT_FLOAT
        tensor_shape {
          dim {
            size: 64
          }
          dim {
            size: 10
          }
        }
        float_val: 0.0
      }
    }
  }
}
node {
  name: "output/kernel/Adam_1"
  op: "VariableV2"
  attr {
    key: "_class"
    value {
      list {
        s: "loc:@output/kernel"
      }
    }
  }
  attr {
    key: "container"
    value {
      s: ""
    }
  }
  attr {
    key: "dtype"
    value {
      type: DT_FLOAT
    }
  }
  attr {
    key: "shape"
    value {
      shape {
        dim {
          size: 64
        }
        dim {
          size: 10
        }
      }
    }
  }
  attr {
    key: "shared_name"
    value {
      s: ""
    }
  }
}
node {
  name: "output/kernel/Adam_1/Assign"
  op: "Assign"
  input: "output/kernel/Adam_1"
  input: "output/kernel/Adam_1/Initializer/zeros"
  attr {
    key: "T"
    value {
      type: DT_FLOAT
    }
  }
  attr {
    key: "_class"
    value {
      list {
        s: "loc:@output/kernel"
      }
    }
  }
  attr {
    key: "use_locking"
    value {
      b: true
    }
  }
  attr {
    key: "validate_shape"
    value {
      b: true
    }
  }
}
node {
  name: "output/kernel/Adam_1/read"
  op: "Identity"
  input: "output/kernel/Adam_1"
  attr {
    key: "T"
    value {
      type: DT_FLOAT
    }
  }
  attr {
    key: "_class"
    value {
      list {
        s: "loc:@output/kernel"
      }
    }
  }
}
node {
  name: "output/bias/Adam/Initializer/zeros"
  op: "Const"
  attr {
    key: "_class"
    value {
      list {
        s: "loc:@output/bias"
      }
    }
  }
  attr {
    key: "dtype"
    value {
      type: DT_FLOAT
    }
  }
  attr {
    key: "value"
    value {
      tensor {
        dtype: DT_FLOAT
        tensor_shape {
          dim {
            size: 10
          }
        }
        float_val: 0.0
      }
    }
  }
}
node {
  name: "output/bias/Adam"
  op: "VariableV2"
  attr {
    key: "_class"
    value {
      list {
        s: "loc:@output/bias"
      }
    }
  }
  attr {
    key: "container"
    value {
      s: ""
    }
  }
  attr {
    key: "dtype"
    value {
      type: DT_FLOAT
    }
  }
  attr {
    key: "shape"
    value {
      shape {
        dim {
          size: 10
        }
      }
    }
  }
  attr {
    key: "shared_name"
    value {
      s: ""
    }
  }
}
node {
  name: "output/bias/Adam/Assign"
  op: "Assign"
  input: "output/bias/Adam"
  input: "output/bias/Adam/Initializer/zeros"
  attr {
    key: "T"
    value {
      type: DT_FLOAT
    }
  }
  attr {
    key: "_class"
    value {
      list {
        s: "loc:@output/bias"
      }
    }
  }
  attr {
    key: "use_locking"
    value {
      b: true
    }
  }
  attr {
    key: "validate_shape"
    value {
      b: true
    }
  }
}
node {
  name: "output/bias/Adam/read"
  op: "Identity"
  input: "output/bias/Adam"
  attr {
    key: "T"
    value {
      type: DT_FLOAT
    }
  }
  attr {
    key: "_class"
    value {
      list {
        s: "loc:@output/bias"
      }
    }
  }
}
node {
  name: "output/bias/Adam_1/Initializer/zeros"
  op: "Const"
  attr {
    key: "_class"
    value {
      list {
        s: "loc:@output/bias"
      }
    }
  }
  attr {
    key: "dtype"
    value {
      type: DT_FLOAT
    }
  }
  attr {
    key: "value"
    value {
      tensor {
        dtype: DT_FLOAT
        tensor_shape {
          dim {
            size: 10
          }
        }
        float_val: 0.0
      }
    }
  }
}
node {
  name: "output/bias/Adam_1"
  op: "VariableV2"
  attr {
    key: "_class"
    value {
      list {
        s: "loc:@output/bias"
      }
    }
  }
  attr {
    key: "container"
    value {
      s: ""
    }
  }
  attr {
    key: "dtype"
    value {
      type: DT_FLOAT
    }
  }
  attr {
    key: "shape"
    value {
      shape {
        dim {
          size: 10
        }
      }
    }
  }
  attr {
    key: "shared_name"
    value {
      s: ""
    }
  }
}
node {
  name: "output/bias/Adam_1/Assign"
  op: "Assign"
  input: "output/bias/Adam_1"
  input: "output/bias/Adam_1/Initializer/zeros"
  attr {
    key: "T"
    value {
      type: DT_FLOAT
    }
  }
  attr {
    key: "_class"
    value {
      list {
        s: "loc:@output/bias"
      }
    }
  }
  attr {
    key: "use_locking"
    value {
      b: true
    }
  }
  attr {
    key: "validate_shape"
    value {
      b: true
    }
  }
}
node {
  name: "output/bias/Adam_1/read"
  op: "Identity"
  input: "output/bias/Adam_1"
  attr {
    key: "T"
    value {
      type: DT_FLOAT
    }
  }
  attr {
    key: "_class"
    value {
      list {
        s: "loc:@output/bias"
      }
    }
  }
}
node {
  name: "train/Adam/learning_rate"
  op: "Const"
  attr {
    key: "dtype"
    value {
      type: DT_FLOAT
    }
  }
  attr {
    key: "value"
    value {
      tensor {
        dtype: DT_FLOAT
        tensor_shape {
        }
        float_val: 0.0010000000475
      }
    }
  }
}
node {
  name: "train/Adam/beta1"
  op: "Const"
  attr {
    key: "dtype"
    value {
      type: DT_FLOAT
    }
  }
  attr {
    key: "value"
    value {
      tensor {
        dtype: DT_FLOAT
        tensor_shape {
        }
        float_val: 0.899999976158
      }
    }
  }
}
node {
  name: "train/Adam/beta2"
  op: "Const"
  attr {
    key: "dtype"
    value {
      type: DT_FLOAT
    }
  }
  attr {
    key: "value"
    value {
      tensor {
        dtype: DT_FLOAT
        tensor_shape {
        }
        float_val: 0.999000012875
      }
    }
  }
}
node {
  name: "train/Adam/epsilon"
  op: "Const"
  attr {
    key: "dtype"
    value {
      type: DT_FLOAT
    }
  }
  attr {
    key: "value"
    value {
      tensor {
        dtype: DT_FLOAT
        tensor_shape {
        }
        float_val: 9.99999993923e-09
      }
    }
  }
}
node {
  name: "train/Adam/update_conv1/kernel/ApplyAdam"
  op: "ApplyAdam"
  input: "conv1/kernel"
  input: "conv1/kernel/Adam"
  input: "conv1/kernel/Adam_1"
  input: "train/beta1_power/read"
  input: "train/beta2_power/read"
  input: "train/Adam/learning_rate"
  input: "train/Adam/beta1"
  input: "train/Adam/beta2"
  input: "train/Adam/epsilon"
  input: "train/gradients/conv1/Conv2D_grad/tuple/control_dependency_1"
  attr {
    key: "T"
    value {
      type: DT_FLOAT
    }
  }
  attr {
    key: "_class"
    value {
      list {
        s: "loc:@conv1/kernel"
      }
    }
  }
  attr {
    key: "use_locking"
    value {
      b: false
    }
  }
  attr {
    key: "use_nesterov"
    value {
      b: false
    }
  }
}
node {
  name: "train/Adam/update_conv1/bias/ApplyAdam"
  op: "ApplyAdam"
  input: "conv1/bias"
  input: "conv1/bias/Adam"
  input: "conv1/bias/Adam_1"
  input: "train/beta1_power/read"
  input: "train/beta2_power/read"
  input: "train/Adam/learning_rate"
  input: "train/Adam/beta1"
  input: "train/Adam/beta2"
  input: "train/Adam/epsilon"
  input: "train/gradients/conv1/BiasAdd_grad/tuple/control_dependency_1"
  attr {
    key: "T"
    value {
      type: DT_FLOAT
    }
  }
  attr {
    key: "_class"
    value {
      list {
        s: "loc:@conv1/bias"
      }
    }
  }
  attr {
    key: "use_locking"
    value {
      b: false
    }
  }
  attr {
    key: "use_nesterov"
    value {
      b: false
    }
  }
}
node {
  name: "train/Adam/update_conv2/kernel/ApplyAdam"
  op: "ApplyAdam"
  input: "conv2/kernel"
  input: "conv2/kernel/Adam"
  input: "conv2/kernel/Adam_1"
  input: "train/beta1_power/read"
  input: "train/beta2_power/read"
  input: "train/Adam/learning_rate"
  input: "train/Adam/beta1"
  input: "train/Adam/beta2"
  input: "train/Adam/epsilon"
  input: "train/gradients/conv2/Conv2D_grad/tuple/control_dependency_1"
  attr {
    key: "T"
    value {
      type: DT_FLOAT
    }
  }
  attr {
    key: "_class"
    value {
      list {
        s: "loc:@conv2/kernel"
      }
    }
  }
  attr {
    key: "use_locking"
    value {
      b: false
    }
  }
  attr {
    key: "use_nesterov"
    value {
      b: false
    }
  }
}
node {
  name: "train/Adam/update_conv2/bias/ApplyAdam"
  op: "ApplyAdam"
  input: "conv2/bias"
  input: "conv2/bias/Adam"
  input: "conv2/bias/Adam_1"
  input: "train/beta1_power/read"
  input: "train/beta2_power/read"
  input: "train/Adam/learning_rate"
  input: "train/Adam/beta1"
  input: "train/Adam/beta2"
  input: "train/Adam/epsilon"
  input: "train/gradients/conv2/BiasAdd_grad/tuple/control_dependency_1"
  attr {
    key: "T"
    value {
      type: DT_FLOAT
    }
  }
  attr {
    key: "_class"
    value {
      list {
        s: "loc:@conv2/bias"
      }
    }
  }
  attr {
    key: "use_locking"
    value {
      b: false
    }
  }
  attr {
    key: "use_nesterov"
    value {
      b: false
    }
  }
}
node {
  name: "train/Adam/update_fc1/kernel/ApplyAdam"
  op: "ApplyAdam"
  input: "fc1/kernel"
  input: "fc1/kernel/Adam"
  input: "fc1/kernel/Adam_1"
  input: "train/beta1_power/read"
  input: "train/beta2_power/read"
  input: "train/Adam/learning_rate"
  input: "train/Adam/beta1"
  input: "train/Adam/beta2"
  input: "train/Adam/epsilon"
  input: "train/gradients/fc1/fc1/MatMul_grad/tuple/control_dependency_1"
  attr {
    key: "T"
    value {
      type: DT_FLOAT
    }
  }
  attr {
    key: "_class"
    value {
      list {
        s: "loc:@fc1/kernel"
      }
    }
  }
  attr {
    key: "use_locking"
    value {
      b: false
    }
  }
  attr {
    key: "use_nesterov"
    value {
      b: false
    }
  }
}
node {
  name: "train/Adam/update_fc1/bias/ApplyAdam"
  op: "ApplyAdam"
  input: "fc1/bias"
  input: "fc1/bias/Adam"
  input: "fc1/bias/Adam_1"
  input: "train/beta1_power/read"
  input: "train/beta2_power/read"
  input: "train/Adam/learning_rate"
  input: "train/Adam/beta1"
  input: "train/Adam/beta2"
  input: "train/Adam/epsilon"
  input: "train/gradients/fc1/fc1/BiasAdd_grad/tuple/control_dependency_1"
  attr {
    key: "T"
    value {
      type: DT_FLOAT
    }
  }
  attr {
    key: "_class"
    value {
      list {
        s: "loc:@fc1/bias"
      }
    }
  }
  attr {
    key: "use_locking"
    value {
      b: false
    }
  }
  attr {
    key: "use_nesterov"
    value {
      b: false
    }
  }
}
node {
  name: "train/Adam/update_output/kernel/ApplyAdam"
  op: "ApplyAdam"
  input: "output/kernel"
  input: "output/kernel/Adam"
  input: "output/kernel/Adam_1"
  input: "train/beta1_power/read"
  input: "train/beta2_power/read"
  input: "train/Adam/learning_rate"
  input: "train/Adam/beta1"
  input: "train/Adam/beta2"
  input: "train/Adam/epsilon"
  input: "train/gradients/output/output/MatMul_grad/tuple/control_dependency_1"
  attr {
    key: "T"
    value {
      type: DT_FLOAT
    }
  }
  attr {
    key: "_class"
    value {
      list {
        s: "loc:@output/kernel"
      }
    }
  }
  attr {
    key: "use_locking"
    value {
      b: false
    }
  }
  attr {
    key: "use_nesterov"
    value {
      b: false
    }
  }
}
node {
  name: "train/Adam/update_output/bias/ApplyAdam"
  op: "ApplyAdam"
  input: "output/bias"
  input: "output/bias/Adam"
  input: "output/bias/Adam_1"
  input: "train/beta1_power/read"
  input: "train/beta2_power/read"
  input: "train/Adam/learning_rate"
  input: "train/Adam/beta1"
  input: "train/Adam/beta2"
  input: "train/Adam/epsilon"
  input: "train/gradients/output/output/BiasAdd_grad/tuple/control_dependency_1"
  attr {
    key: "T"
    value {
      type: DT_FLOAT
    }
  }
  attr {
    key: "_class"
    value {
      list {
        s: "loc:@output/bias"
      }
    }
  }
  attr {
    key: "use_locking"
    value {
      b: false
    }
  }
  attr {
    key: "use_nesterov"
    value {
      b: false
    }
  }
}
node {
  name: "train/Adam/mul"
  op: "Mul"
  input: "train/beta1_power/read"
  input: "train/Adam/beta1"
  input: "^train/Adam/update_conv1/bias/ApplyAdam"
  input: "^train/Adam/update_conv1/kernel/ApplyAdam"
  input: "^train/Adam/update_conv2/bias/ApplyAdam"
  input: "^train/Adam/update_conv2/kernel/ApplyAdam"
  input: "^train/Adam/update_fc1/bias/ApplyAdam"
  input: "^train/Adam/update_fc1/kernel/ApplyAdam"
  input: "^train/Adam/update_output/bias/ApplyAdam"
  input: "^train/Adam/update_output/kernel/ApplyAdam"
  attr {
    key: "T"
    value {
      type: DT_FLOAT
    }
  }
  attr {
    key: "_class"
    value {
      list {
        s: "loc:@conv1/bias"
      }
    }
  }
}
node {
  name: "train/Adam/Assign"
  op: "Assign"
  input: "train/beta1_power"
  input: "train/Adam/mul"
  attr {
    key: "T"
    value {
      type: DT_FLOAT
    }
  }
  attr {
    key: "_class"
    value {
      list {
        s: "loc:@conv1/bias"
      }
    }
  }
  attr {
    key: "use_locking"
    value {
      b: false
    }
  }
  attr {
    key: "validate_shape"
    value {
      b: true
    }
  }
}
node {
  name: "train/Adam/mul_1"
  op: "Mul"
  input: "train/beta2_power/read"
  input: "train/Adam/beta2"
  input: "^train/Adam/update_conv1/bias/ApplyAdam"
  input: "^train/Adam/update_conv1/kernel/ApplyAdam"
  input: "^train/Adam/update_conv2/bias/ApplyAdam"
  input: "^train/Adam/update_conv2/kernel/ApplyAdam"
  input: "^train/Adam/update_fc1/bias/ApplyAdam"
  input: "^train/Adam/update_fc1/kernel/ApplyAdam"
  input: "^train/Adam/update_output/bias/ApplyAdam"
  input: "^train/Adam/update_output/kernel/ApplyAdam"
  attr {
    key: "T"
    value {
      type: DT_FLOAT
    }
  }
  attr {
    key: "_class"
    value {
      list {
        s: "loc:@conv1/bias"
      }
    }
  }
}
node {
  name: "train/Adam/Assign_1"
  op: "Assign"
  input: "train/beta2_power"
  input: "train/Adam/mul_1"
  attr {
    key: "T"
    value {
      type: DT_FLOAT
    }
  }
  attr {
    key: "_class"
    value {
      list {
        s: "loc:@conv1/bias"
      }
    }
  }
  attr {
    key: "use_locking"
    value {
      b: false
    }
  }
  attr {
    key: "validate_shape"
    value {
      b: true
    }
  }
}
node {
  name: "train/Adam"
  op: "NoOp"
  input: "^train/Adam/Assign"
  input: "^train/Adam/Assign_1"
  input: "^train/Adam/update_conv1/bias/ApplyAdam"
  input: "^train/Adam/update_conv1/kernel/ApplyAdam"
  input: "^train/Adam/update_conv2/bias/ApplyAdam"
  input: "^train/Adam/update_conv2/kernel/ApplyAdam"
  input: "^train/Adam/update_fc1/bias/ApplyAdam"
  input: "^train/Adam/update_fc1/kernel/ApplyAdam"
  input: "^train/Adam/update_output/bias/ApplyAdam"
  input: "^train/Adam/update_output/kernel/ApplyAdam"
}
node {
  name: "eval/in_top_k/InTopKV2/k"
  op: "Const"
  attr {
    key: "dtype"
    value {
      type: DT_INT32
    }
  }
  attr {
    key: "value"
    value {
      tensor {
        dtype: DT_INT32
        tensor_shape {
        }
        int_val: 1
      }
    }
  }
}
node {
  name: "eval/in_top_k/InTopKV2"
  op: "InTopKV2"
  input: "output/output/BiasAdd"
  input: "inputs/y"
  input: "eval/in_top_k/InTopKV2/k"
  attr {
    key: "T"
    value {
      type: DT_INT32
    }
  }
}
node {
  name: "eval/Cast"
  op: "Cast"
  input: "eval/in_top_k/InTopKV2"
  attr {
    key: "DstT"
    value {
      type: DT_FLOAT
    }
  }
  attr {
    key: "SrcT"
    value {
      type: DT_BOOL
    }
  }
  attr {
    key: "Truncate"
    value {
      b: false
    }
  }
}
node {
  name: "eval/Const"
  op: "Const"
  attr {
    key: "dtype"
    value {
      type: DT_INT32
    }
  }
  attr {
    key: "value"
    value {
      tensor {
        dtype: DT_INT32
        tensor_shape {
          dim {
            size: 1
          }
        }
        int_val: 0
      }
    }
  }
}
node {
  name: "eval/Mean"
  op: "Mean"
  input: "eval/Cast"
  input: "eval/Const"
  attr {
    key: "T"
    value {
      type: DT_FLOAT
    }
  }
  attr {
    key: "Tidx"
    value {
      type: DT_INT32
    }
  }
  attr {
    key: "keep_dims"
    value {
      b: false
    }
  }
}
node {
  name: "init_and_save/init"
  op: "NoOp"
  input: "^conv1/bias/Adam/Assign"
  input: "^conv1/bias/Adam_1/Assign"
  input: "^conv1/bias/Assign"
  input: "^conv1/kernel/Adam/Assign"
  input: "^conv1/kernel/Adam_1/Assign"
  input: "^conv1/kernel/Assign"
  input: "^conv2/bias/Adam/Assign"
  input: "^conv2/bias/Adam_1/Assign"
  input: "^conv2/bias/Assign"
  input: "^conv2/kernel/Adam/Assign"
  input: "^conv2/kernel/Adam_1/Assign"
  input: "^conv2/kernel/Assign"
  input: "^fc1/bias/Adam/Assign"
  input: "^fc1/bias/Adam_1/Assign"
  input: "^fc1/bias/Assign"
  input: "^fc1/kernel/Adam/Assign"
  input: "^fc1/kernel/Adam_1/Assign"
  input: "^fc1/kernel/Assign"
  input: "^output/bias/Adam/Assign"
  input: "^output/bias/Adam_1/Assign"
  input: "^output/bias/Assign"
  input: "^output/kernel/Adam/Assign"
  input: "^output/kernel/Adam_1/Assign"
  input: "^output/kernel/Assign"
  input: "^train/beta1_power/Assign"
  input: "^train/beta2_power/Assign"
}
node {
  name: "init_and_save/save/Const"
  op: "Const"
  attr {
    key: "dtype"
    value {
      type: DT_STRING
    }
  }
  attr {
    key: "value"
    value {
      tensor {
        dtype: DT_STRING
        tensor_shape {
        }
        string_val: "model"
      }
    }
  }
}
node {
  name: "init_and_save/save/SaveV2/tensor_names"
  op: "Const"
  attr {
    key: "dtype"
    value {
      type: DT_STRING
    }
  }
  attr {
    key: "value"
    value {
      tensor {
        dtype: DT_STRING
        tensor_shape {
          dim {
            size: 26
          }
        }
        string_val: "conv1/bias"
        string_val: "conv1/bias/Adam"
        string_val: "conv1/bias/Adam_1"
        string_val: "conv1/kernel"
        string_val: "conv1/kernel/Adam"
        string_val: "conv1/kernel/Adam_1"
        string_val: "conv2/bias"
        string_val: "conv2/bias/Adam"
        string_val: "conv2/bias/Adam_1"
        string_val: "conv2/kernel"
        string_val: "conv2/kernel/Adam"
        string_val: "conv2/kernel/Adam_1"
        string_val: "fc1/bias"
        string_val: "fc1/bias/Adam"
        string_val: "fc1/bias/Adam_1"
        string_val: "fc1/kernel"
        string_val: "fc1/kernel/Adam"
        string_val: "fc1/kernel/Adam_1"
        string_val: "output/bias"
        string_val: "output/bias/Adam"
        string_val: "output/bias/Adam_1"
        string_val: "output/kernel"
        string_val: "output/kernel/Adam"
        string_val: "output/kernel/Adam_1"
        string_val: "train/beta1_power"
        string_val: "train/beta2_power"
      }
    }
  }
}
node {
  name: "init_and_save/save/SaveV2/shape_and_slices"
  op: "Const"
  attr {
    key: "dtype"
    value {
      type: DT_STRING
    }
  }
  attr {
    key: "value"
    value {
      tensor {
        dtype: DT_STRING
        tensor_shape {
          dim {
            size: 26
          }
        }
        string_val: ""
        string_val: ""
        string_val: ""
        string_val: ""
        string_val: ""
        string_val: ""
        string_val: ""
        string_val: ""
        string_val: ""
        string_val: ""
        string_val: ""
        string_val: ""
        string_val: ""
        string_val: ""
        string_val: ""
        string_val: ""
        string_val: ""
        string_val: ""
        string_val: ""
        string_val: ""
        string_val: ""
        string_val: ""
        string_val: ""
        string_val: ""
        string_val: ""
        string_val: ""
      }
    }
  }
}
node {
  name: "init_and_save/save/SaveV2"
  op: "SaveV2"
  input: "init_and_save/save/Const"
  input: "init_and_save/save/SaveV2/tensor_names"
  input: "init_and_save/save/SaveV2/shape_and_slices"
  input: "conv1/bias"
  input: "conv1/bias/Adam"
  input: "conv1/bias/Adam_1"
  input: "conv1/kernel"
  input: "conv1/kernel/Adam"
  input: "conv1/kernel/Adam_1"
  input: "conv2/bias"
  input: "conv2/bias/Adam"
  input: "conv2/bias/Adam_1"
  input: "conv2/kernel"
  input: "conv2/kernel/Adam"
  input: "conv2/kernel/Adam_1"
  input: "fc1/bias"
  input: "fc1/bias/Adam"
  input: "fc1/bias/Adam_1"
  input: "fc1/kernel"
  input: "fc1/kernel/Adam"
  input: "fc1/kernel/Adam_1"
  input: "output/bias"
  input: "output/bias/Adam"
  input: "output/bias/Adam_1"
  input: "output/kernel"
  input: "output/kernel/Adam"
  input: "output/kernel/Adam_1"
  input: "train/beta1_power"
  input: "train/beta2_power"
  attr {
    key: "dtypes"
    value {
      list {
        type: DT_FLOAT
        type: DT_FLOAT
        type: DT_FLOAT
        type: DT_FLOAT
        type: DT_FLOAT
        type: DT_FLOAT
        type: DT_FLOAT
        type: DT_FLOAT
        type: DT_FLOAT
        type: DT_FLOAT
        type: DT_FLOAT
        type: DT_FLOAT
        type: DT_FLOAT
        type: DT_FLOAT
        type: DT_FLOAT
        type: DT_FLOAT
        type: DT_FLOAT
        type: DT_FLOAT
        type: DT_FLOAT
        type: DT_FLOAT
        type: DT_FLOAT
        type: DT_FLOAT
        type: DT_FLOAT
        type: DT_FLOAT
        type: DT_FLOAT
        type: DT_FLOAT
      }
    }
  }
}
node {
  name: "init_and_save/save/control_dependency"
  op: "Identity"
  input: "init_and_save/save/Const"
  input: "^init_and_save/save/SaveV2"
  attr {
    key: "T"
    value {
      type: DT_STRING
    }
  }
  attr {
    key: "_class"
    value {
      list {
        s: "loc:@init_and_save/save/Const"
      }
    }
  }
}
node {
  name: "init_and_save/save/RestoreV2/tensor_names"
  op: "Const"
  device: "/device:CPU:0"
  attr {
    key: "dtype"
    value {
      type: DT_STRING
    }
  }
  attr {
    key: "value"
    value {
      tensor {
        dtype: DT_STRING
        tensor_shape {
          dim {
            size: 26
          }
        }
        string_val: "conv1/bias"
        string_val: "conv1/bias/Adam"
        string_val: "conv1/bias/Adam_1"
        string_val: "conv1/kernel"
        string_val: "conv1/kernel/Adam"
        string_val: "conv1/kernel/Adam_1"
        string_val: "conv2/bias"
        string_val: "conv2/bias/Adam"
        string_val: "conv2/bias/Adam_1"
        string_val: "conv2/kernel"
        string_val: "conv2/kernel/Adam"
        string_val: "conv2/kernel/Adam_1"
        string_val: "fc1/bias"
        string_val: "fc1/bias/Adam"
        string_val: "fc1/bias/Adam_1"
        string_val: "fc1/kernel"
        string_val: "fc1/kernel/Adam"
        string_val: "fc1/kernel/Adam_1"
        string_val: "output/bias"
        string_val: "output/bias/Adam"
        string_val: "output/bias/Adam_1"
        string_val: "output/kernel"
        string_val: "output/kernel/Adam"
        string_val: "output/kernel/Adam_1"
        string_val: "train/beta1_power"
        string_val: "train/beta2_power"
      }
    }
  }
}
node {
  name: "init_and_save/save/RestoreV2/shape_and_slices"
  op: "Const"
  device: "/device:CPU:0"
  attr {
    key: "dtype"
    value {
      type: DT_STRING
    }
  }
  attr {
    key: "value"
    value {
      tensor {
        dtype: DT_STRING
        tensor_shape {
          dim {
            size: 26
          }
        }
        string_val: ""
        string_val: ""
        string_val: ""
        string_val: ""
        string_val: ""
        string_val: ""
        string_val: ""
        string_val: ""
        string_val: ""
        string_val: ""
        string_val: ""
        string_val: ""
        string_val: ""
        string_val: ""
        string_val: ""
        string_val: ""
        string_val: ""
        string_val: ""
        string_val: ""
        string_val: ""
        string_val: ""
        string_val: ""
        string_val: ""
        string_val: ""
        string_val: ""
        string_val: ""
      }
    }
  }
}
node {
  name: "init_and_save/save/RestoreV2"
  op: "RestoreV2"
  input: "init_and_save/save/Const"
  input: "init_and_save/save/RestoreV2/tensor_names"
  input: "init_and_save/save/RestoreV2/shape_and_slices"
  device: "/device:CPU:0"
  attr {
    key: "dtypes"
    value {
      list {
        type: DT_FLOAT
        type: DT_FLOAT
        type: DT_FLOAT
        type: DT_FLOAT
        type: DT_FLOAT
        type: DT_FLOAT
        type: DT_FLOAT
        type: DT_FLOAT
        type: DT_FLOAT
        type: DT_FLOAT
        type: DT_FLOAT
        type: DT_FLOAT
        type: DT_FLOAT
        type: DT_FLOAT
        type: DT_FLOAT
        type: DT_FLOAT
        type: DT_FLOAT
        type: DT_FLOAT
        type: DT_FLOAT
        type: DT_FLOAT
        type: DT_FLOAT
        type: DT_FLOAT
        type: DT_FLOAT
        type: DT_FLOAT
        type: DT_FLOAT
        type: DT_FLOAT
      }
    }
  }
}
node {
  name: "init_and_save/save/Assign"
  op: "Assign"
  input: "conv1/bias"
  input: "init_and_save/save/RestoreV2"
  attr {
    key: "T"
    value {
      type: DT_FLOAT
    }
  }
  attr {
    key: "_class"
    value {
      list {
        s: "loc:@conv1/bias"
      }
    }
  }
  attr {
    key: "use_locking"
    value {
      b: true
    }
  }
  attr {
    key: "validate_shape"
    value {
      b: true
    }
  }
}
node {
  name: "init_and_save/save/Assign_1"
  op: "Assign"
  input: "conv1/bias/Adam"
  input: "init_and_save/save/RestoreV2:1"
  attr {
    key: "T"
    value {
      type: DT_FLOAT
    }
  }
  attr {
    key: "_class"
    value {
      list {
        s: "loc:@conv1/bias"
      }
    }
  }
  attr {
    key: "use_locking"
    value {
      b: true
    }
  }
  attr {
    key: "validate_shape"
    value {
      b: true
    }
  }
}
node {
  name: "init_and_save/save/Assign_2"
  op: "Assign"
  input: "conv1/bias/Adam_1"
  input: "init_and_save/save/RestoreV2:2"
  attr {
    key: "T"
    value {
      type: DT_FLOAT
    }
  }
  attr {
    key: "_class"
    value {
      list {
        s: "loc:@conv1/bias"
      }
    }
  }
  attr {
    key: "use_locking"
    value {
      b: true
    }
  }
  attr {
    key: "validate_shape"
    value {
      b: true
    }
  }
}
node {
  name: "init_and_save/save/Assign_3"
  op: "Assign"
  input: "conv1/kernel"
  input: "init_and_save/save/RestoreV2:3"
  attr {
    key: "T"
    value {
      type: DT_FLOAT
    }
  }
  attr {
    key: "_class"
    value {
      list {
        s: "loc:@conv1/kernel"
      }
    }
  }
  attr {
    key: "use_locking"
    value {
      b: true
    }
  }
  attr {
    key: "validate_shape"
    value {
      b: true
    }
  }
}
node {
  name: "init_and_save/save/Assign_4"
  op: "Assign"
  input: "conv1/kernel/Adam"
  input: "init_and_save/save/RestoreV2:4"
  attr {
    key: "T"
    value {
      type: DT_FLOAT
    }
  }
  attr {
    key: "_class"
    value {
      list {
        s: "loc:@conv1/kernel"
      }
    }
  }
  attr {
    key: "use_locking"
    value {
      b: true
    }
  }
  attr {
    key: "validate_shape"
    value {
      b: true
    }
  }
}
node {
  name: "init_and_save/save/Assign_5"
  op: "Assign"
  input: "conv1/kernel/Adam_1"
  input: "init_and_save/save/RestoreV2:5"
  attr {
    key: "T"
    value {
      type: DT_FLOAT
    }
  }
  attr {
    key: "_class"
    value {
      list {
        s: "loc:@conv1/kernel"
      }
    }
  }
  attr {
    key: "use_locking"
    value {
      b: true
    }
  }
  attr {
    key: "validate_shape"
    value {
      b: true
    }
  }
}
node {
  name: "init_and_save/save/Assign_6"
  op: "Assign"
  input: "conv2/bias"
  input: "init_and_save/save/RestoreV2:6"
  attr {
    key: "T"
    value {
      type: DT_FLOAT
    }
  }
  attr {
    key: "_class"
    value {
      list {
        s: "loc:@conv2/bias"
      }
    }
  }
  attr {
    key: "use_locking"
    value {
      b: true
    }
  }
  attr {
    key: "validate_shape"
    value {
      b: true
    }
  }
}
node {
  name: "init_and_save/save/Assign_7"
  op: "Assign"
  input: "conv2/bias/Adam"
  input: "init_and_save/save/RestoreV2:7"
  attr {
    key: "T"
    value {
      type: DT_FLOAT
    }
  }
  attr {
    key: "_class"
    value {
      list {
        s: "loc:@conv2/bias"
      }
    }
  }
  attr {
    key: "use_locking"
    value {
      b: true
    }
  }
  attr {
    key: "validate_shape"
    value {
      b: true
    }
  }
}
node {
  name: "init_and_save/save/Assign_8"
  op: "Assign"
  input: "conv2/bias/Adam_1"
  input: "init_and_save/save/RestoreV2:8"
  attr {
    key: "T"
    value {
      type: DT_FLOAT
    }
  }
  attr {
    key: "_class"
    value {
      list {
        s: "loc:@conv2/bias"
      }
    }
  }
  attr {
    key: "use_locking"
    value {
      b: true
    }
  }
  attr {
    key: "validate_shape"
    value {
      b: true
    }
  }
}
node {
  name: "init_and_save/save/Assign_9"
  op: "Assign"
  input: "conv2/kernel"
  input: "init_and_save/save/RestoreV2:9"
  attr {
    key: "T"
    value {
      type: DT_FLOAT
    }
  }
  attr {
    key: "_class"
    value {
      list {
        s: "loc:@conv2/kernel"
      }
    }
  }
  attr {
    key: "use_locking"
    value {
      b: true
    }
  }
  attr {
    key: "validate_shape"
    value {
      b: true
    }
  }
}
node {
  name: "init_and_save/save/Assign_10"
  op: "Assign"
  input: "conv2/kernel/Adam"
  input: "init_and_save/save/RestoreV2:10"
  attr {
    key: "T"
    value {
      type: DT_FLOAT
    }
  }
  attr {
    key: "_class"
    value {
      list {
        s: "loc:@conv2/kernel"
      }
    }
  }
  attr {
    key: "use_locking"
    value {
      b: true
    }
  }
  attr {
    key: "validate_shape"
    value {
      b: true
    }
  }
}
node {
  name: "init_and_save/save/Assign_11"
  op: "Assign"
  input: "conv2/kernel/Adam_1"
  input: "init_and_save/save/RestoreV2:11"
  attr {
    key: "T"
    value {
      type: DT_FLOAT
    }
  }
  attr {
    key: "_class"
    value {
      list {
        s: "loc:@conv2/kernel"
      }
    }
  }
  attr {
    key: "use_locking"
    value {
      b: true
    }
  }
  attr {
    key: "validate_shape"
    value {
      b: true
    }
  }
}
node {
  name: "init_and_save/save/Assign_12"
  op: "Assign"
  input: "fc1/bias"
  input: "init_and_save/save/RestoreV2:12"
  attr {
    key: "T"
    value {
      type: DT_FLOAT
    }
  }
  attr {
    key: "_class"
    value {
      list {
        s: "loc:@fc1/bias"
      }
    }
  }
  attr {
    key: "use_locking"
    value {
      b: true
    }
  }
  attr {
    key: "validate_shape"
    value {
      b: true
    }
  }
}
node {
  name: "init_and_save/save/Assign_13"
  op: "Assign"
  input: "fc1/bias/Adam"
  input: "init_and_save/save/RestoreV2:13"
  attr {
    key: "T"
    value {
      type: DT_FLOAT
    }
  }
  attr {
    key: "_class"
    value {
      list {
        s: "loc:@fc1/bias"
      }
    }
  }
  attr {
    key: "use_locking"
    value {
      b: true
    }
  }
  attr {
    key: "validate_shape"
    value {
      b: true
    }
  }
}
node {
  name: "init_and_save/save/Assign_14"
  op: "Assign"
  input: "fc1/bias/Adam_1"
  input: "init_and_save/save/RestoreV2:14"
  attr {
    key: "T"
    value {
      type: DT_FLOAT
    }
  }
  attr {
    key: "_class"
    value {
      list {
        s: "loc:@fc1/bias"
      }
    }
  }
  attr {
    key: "use_locking"
    value {
      b: true
    }
  }
  attr {
    key: "validate_shape"
    value {
      b: true
    }
  }
}
node {
  name: "init_and_save/save/Assign_15"
  op: "Assign"
  input: "fc1/kernel"
  input: "init_and_save/save/RestoreV2:15"
  attr {
    key: "T"
    value {
      type: DT_FLOAT
    }
  }
  attr {
    key: "_class"
    value {
      list {
        s: "loc:@fc1/kernel"
      }
    }
  }
  attr {
    key: "use_locking"
    value {
      b: true
    }
  }
  attr {
    key: "validate_shape"
    value {
      b: true
    }
  }
}
node {
  name: "init_and_save/save/Assign_16"
  op: "Assign"
  input: "fc1/kernel/Adam"
  input: "init_and_save/save/RestoreV2:16"
  attr {
    key: "T"
    value {
      type: DT_FLOAT
    }
  }
  attr {
    key: "_class"
    value {
      list {
        s: "loc:@fc1/kernel"
      }
    }
  }
  attr {
    key: "use_locking"
    value {
      b: true
    }
  }
  attr {
    key: "validate_shape"
    value {
      b: true
    }
  }
}
node {
  name: "init_and_save/save/Assign_17"
  op: "Assign"
  input: "fc1/kernel/Adam_1"
  input: "init_and_save/save/RestoreV2:17"
  attr {
    key: "T"
    value {
      type: DT_FLOAT
    }
  }
  attr {
    key: "_class"
    value {
      list {
        s: "loc:@fc1/kernel"
      }
    }
  }
  attr {
    key: "use_locking"
    value {
      b: true
    }
  }
  attr {
    key: "validate_shape"
    value {
      b: true
    }
  }
}
node {
  name: "init_and_save/save/Assign_18"
  op: "Assign"
  input: "output/bias"
  input: "init_and_save/save/RestoreV2:18"
  attr {
    key: "T"
    value {
      type: DT_FLOAT
    }
  }
  attr {
    key: "_class"
    value {
      list {
        s: "loc:@output/bias"
      }
    }
  }
  attr {
    key: "use_locking"
    value {
      b: true
    }
  }
  attr {
    key: "validate_shape"
    value {
      b: true
    }
  }
}
node {
  name: "init_and_save/save/Assign_19"
  op: "Assign"
  input: "output/bias/Adam"
  input: "init_and_save/save/RestoreV2:19"
  attr {
    key: "T"
    value {
      type: DT_FLOAT
    }
  }
  attr {
    key: "_class"
    value {
      list {
        s: "loc:@output/bias"
      }
    }
  }
  attr {
    key: "use_locking"
    value {
      b: true
    }
  }
  attr {
    key: "validate_shape"
    value {
      b: true
    }
  }
}
node {
  name: "init_and_save/save/Assign_20"
  op: "Assign"
  input: "output/bias/Adam_1"
  input: "init_and_save/save/RestoreV2:20"
  attr {
    key: "T"
    value {
      type: DT_FLOAT
    }
  }
  attr {
    key: "_class"
    value {
      list {
        s: "loc:@output/bias"
      }
    }
  }
  attr {
    key: "use_locking"
    value {
      b: true
    }
  }
  attr {
    key: "validate_shape"
    value {
      b: true
    }
  }
}
node {
  name: "init_and_save/save/Assign_21"
  op: "Assign"
  input: "output/kernel"
  input: "init_and_save/save/RestoreV2:21"
  attr {
    key: "T"
    value {
      type: DT_FLOAT
    }
  }
  attr {
    key: "_class"
    value {
      list {
        s: "loc:@output/kernel"
      }
    }
  }
  attr {
    key: "use_locking"
    value {
      b: true
    }
  }
  attr {
    key: "validate_shape"
    value {
      b: true
    }
  }
}
node {
  name: "init_and_save/save/Assign_22"
  op: "Assign"
  input: "output/kernel/Adam"
  input: "init_and_save/save/RestoreV2:22"
  attr {
    key: "T"
    value {
      type: DT_FLOAT
    }
  }
  attr {
    key: "_class"
    value {
      list {
        s: "loc:@output/kernel"
      }
    }
  }
  attr {
    key: "use_locking"
    value {
      b: true
    }
  }
  attr {
    key: "validate_shape"
    value {
      b: true
    }
  }
}
node {
  name: "init_and_save/save/Assign_23"
  op: "Assign"
  input: "output/kernel/Adam_1"
  input: "init_and_save/save/RestoreV2:23"
  attr {
    key: "T"
    value {
      type: DT_FLOAT
    }
  }
  attr {
    key: "_class"
    value {
      list {
        s: "loc:@output/kernel"
      }
    }
  }
  attr {
    key: "use_locking"
    value {
      b: true
    }
  }
  attr {
    key: "validate_shape"
    value {
      b: true
    }
  }
}
node {
  name: "init_and_save/save/Assign_24"
  op: "Assign"
  input: "train/beta1_power"
  input: "init_and_save/save/RestoreV2:24"
  attr {
    key: "T"
    value {
      type: DT_FLOAT
    }
  }
  attr {
    key: "_class"
    value {
      list {
        s: "loc:@conv1/bias"
      }
    }
  }
  attr {
    key: "use_locking"
    value {
      b: true
    }
  }
  attr {
    key: "validate_shape"
    value {
      b: true
    }
  }
}
node {
  name: "init_and_save/save/Assign_25"
  op: "Assign"
  input: "train/beta2_power"
  input: "init_and_save/save/RestoreV2:25"
  attr {
    key: "T"
    value {
      type: DT_FLOAT
    }
  }
  attr {
    key: "_class"
    value {
      list {
        s: "loc:@conv1/bias"
      }
    }
  }
  attr {
    key: "use_locking"
    value {
      b: true
    }
  }
  attr {
    key: "validate_shape"
    value {
      b: true
    }
  }
}
node {
  name: "init_and_save/save/restore_all"
  op: "NoOp"
  input: "^init_and_save/save/Assign"
  input: "^init_and_save/save/Assign_1"
  input: "^init_and_save/save/Assign_10"
  input: "^init_and_save/save/Assign_11"
  input: "^init_and_save/save/Assign_12"
  input: "^init_and_save/save/Assign_13"
  input: "^init_and_save/save/Assign_14"
  input: "^init_and_save/save/Assign_15"
  input: "^init_and_save/save/Assign_16"
  input: "^init_and_save/save/Assign_17"
  input: "^init_and_save/save/Assign_18"
  input: "^init_and_save/save/Assign_19"
  input: "^init_and_save/save/Assign_2"
  input: "^init_and_save/save/Assign_20"
  input: "^init_and_save/save/Assign_21"
  input: "^init_and_save/save/Assign_22"
  input: "^init_and_save/save/Assign_23"
  input: "^init_and_save/save/Assign_24"
  input: "^init_and_save/save/Assign_25"
  input: "^init_and_save/save/Assign_3"
  input: "^init_and_save/save/Assign_4"
  input: "^init_and_save/save/Assign_5"
  input: "^init_and_save/save/Assign_6"
  input: "^init_and_save/save/Assign_7"
  input: "^init_and_save/save/Assign_8"
  input: "^init_and_save/save/Assign_9"
}
versions {
  producer: 27
}
